…
I0915 00:37:58.801614  9213 net.cpp:287] The NetState phase (0) differed from the phase (1) specified by a rule in layer accuracy
I0915 00:37:58.801816  9213 net.cpp:42] Initializing net from parameters: 
name: "LeNet"
state {
  phase: TRAIN
}
layer {
  name: "data"
  type: "Data"
  top: "data"
  top: "label"
  include {
    phase: TRAIN
  }
  transform_param {
    mirror: true
    mean_file: "data/face/patch/aligned_Casia_webFace/patchaligned_Casia_webFace_mean.binaryproto"
  }
  data_param {
    source: "examples/patches17/patchaligned_Casia_webFace_train_lmdb"
    batch_size: 64
    backend: LMDB
  }
}
layer {
  name: "conv1"
  type: "Convolution"
  bottom: "data"
  top: "conv1"
  param {
    name: "conv1_w"
    lr_mult: 1
    decay_mult: 1
  }
  param {
    name: "conv1_b"
    lr_mult: 2
    decay_mult: 0
  }
  convolution_param {
    num_output: 32
    pad: 1
    kernel_size: 3
    stride: 1
    weight_filler {
      type: "xavier"
    }
    bias_filler {
      type: "constant"
    }
  }
}
layer {
  name: "relu1"
  type: "ReLU"
  bottom: "conv1"
  top: "conv1"
}
layer {
  name: "conv1_1"
  type: "Convolution"
  bottom: "conv1"
  top: "conv1_1"
  param {
    name: "conv1_1_w"
    lr_mult: 1
    decay_mult: 1
  }
  param {
    name: "conv1_1_b"
    lr_mult: 2
    decay_mult: 0
  }
  convolution_param {
    num_output: 64
    pad: 1
    kernel_size: 3
    stride: 1
    weight_filler {
      type: "xavier"
    }
    bias_filler {
      type: "constant"
    }
  }
}
layer {
  name: "relu1_1"
  type: "ReLU"
  bottom: "conv1_1"
  top: "conv1_1"
}
layer {
  name: "pool1"
  type: "Pooling"
  bottom: "conv1_1"
  top: "pool1"
  pooling_param {
    pool: MAX
    kernel_size: 2
    stride: 2
  }
}
layer {
  name: "conv2"
  type: "Convolution"
  bottom: "pool1"
  top: "conv2"
  param {
    name: "conv2_w"
    lr_mult: 1
    decay_mult: 1
  }
  param {
    name: "conv2_b"
    lr_mult: 2
    decay_mult: 0
  }
  convolution_param {
    num_output: 64
    pad: 1
    kernel_size: 3
    stride: 1
    weight_filler {
      type: "xavier"
    }
    bias_filler {
      type: "constant"
    }
  }
}
layer {
  name: "relu2"
  type: "ReLU"
  bottom: "conv2"
  top: "conv2"
}
layer {
  name: "conv2_2"
  type: "Convolution"
  bottom: "conv2"
  top: "conv2_2"
  param {
    name: "conv2_2_w"
    lr_mult: 1
    decay_mult: 1
  }
  param {
    name: "conv2_2_b"
    lr_mult: 2
    decay_mult: 0
  }
  convolution_param {
    num_output: 128
    pad: 1
    kernel_size: 3
    stride: 1
    weight_filler {
      type: "xavier"
    }
    bias_filler {
      type: "constant"
    }
  }
}
layer {
  name: "relu2_2"
  type: "ReLU"
  bottom: "conv2_2"
  top: "conv2_2"
}
layer {
  name: "pool2"
  type: "Pooling"
  bottom: "conv2_2"
  top: "pool2"
  pooling_param {
    pool: MAX
    kernel_size: 2
    stride: 2
  }
}
layer {
  name: "conv3"
  type: "Convolution"
  bottom: "pool2"
  top: "conv3"
  param {
    name: "conv3_w"
    lr_mult: 1
    decay_mult: 1
  }
  param {
    name: "conv3_b"
    lr_mult: 2
    decay_mult: 0
  }
  convolution_param {
    num_output: 96
    pad: 1
    kernel_size: 3
    stride: 1
    weight_filler {
      type: "xavier"
    }
    bias_filler {
      type: "constant"
    }
  }
}
layer {
  name: "relu3"
  type: "ReLU"
  bottom: "conv3"
  top: "conv3"
}
layer {
  name: "conv3_2"
  type: "Convolution"
  bottom: "conv3"
  top: "conv3_2"
  param {
    name: "conv3_2_w"
    lr_mult: 1
    decay_mult: 1
  }
  param {
    name: "conv3_@_b"
    lr_mult: 2
    decay_mult: 0
  }
  convolution_param {
    num_output: 192
    pad: 1
    kernel_size: 3
    stride: 1
    weight_filler {
      type: "xavier"
    }
    bias_filler {
      type: "constant"
    }
  }
}
layer {
  name: "relu3_2"
  type: "ReLU"
  bottom: "conv3_2"
  top: "conv3_2"
}
layer {
  name: "pool3"
  type: "Pooling"
  bottom: "conv3_2"
  top: "pool3"
  pooling_param {
    pool: MAX
    kernel_size: 2
    stride: 2
  }
}
layer {
  name: "conv4"
  type: "Convolution"
  bottom: "pool3"
  top: "conv4"
  param {
    name: "conv4_w"
    lr_mult: 1
    decay_mult: 1
  }
  param {
    name: "conv4_b"
    lr_mult: 2
    decay_mult: 0
  }
  convolution_param {
    num_output: 128
    pad: 1
    kernel_size: 3
    stride: 1
    weight_filler {
      type: "xavier"
    }
    bias_filler {
      type: "constant"
    }
  }
}
layer {
  name: "relu4_c"
  type: "ReLU"
  bottom: "conv4"
  top: "conv4"
}
layer {
  name: "conv4_2"
  type: "Convolution"
  bottom: "conv4"
  top: "conv4_2"
  param {
    name: "conv4_2_w"
    lr_mult: 1
    decay_mult: 1
  }
  param {
    name: "conv4_2_b"
    lr_mult: 2
    decay_mult: 0
  }
  convolution_param {
    num_output: 256
    pad: 1
    kernel_size: 3
    stride: 1
    weight_filler {
      type: "xavier"
    }
    bias_filler {
      type: "constant"
    }
  }
}
layer {
  name: "relu4_2"
  type: "ReLU"
  bottom: "conv4_2"
  top: "conv4_2"
}
layer {
  name: "pool4"
  type: "Pooling"
  bottom: "conv4_2"
  top: "pool4"
  pooling_param {
    pool: MAX
    kernel_size: 2
    stride: 2
  }
}
layer {
  name: "conv5"
  type: "Convolution"
  bottom: "pool4"
  top: "conv5"
  param {
    name: "conv5_w"
    lr_mult: 1
    decay_mult: 1
  }
  param {
    name: "conv5_b"
    lr_mult: 2
    decay_mult: 0
  }
  convolution_param {
    num_output: 160
    pad: 1
    kernel_size: 3
    stride: 1
    weight_filler {
      type: "xavier"
    }
    bias_filler {
      type: "constant"
    }
  }
}
layer {
  name: "relu5_c"
  type: "ReLU"
  bottom: "conv5"
  top: "conv5"
}
layer {
  name: "conv5_2"
  type: "Convolution"
  bottom: "conv5"
  top: "conv5_2"
  param {
    name: "conv5_2_w"
    lr_mult: 1
    decay_mult: 1
  }
  param {
    name: "conv5_2_b"
    lr_mult: 2
    decay_mult: 0
  }
  convolution_param {
    num_output: 320
    pad: 1
    kernel_size: 3
    stride: 1
    weight_filler {
      type: "xavier"
    }
    bias_filler {
      type: "constant"
    }
  }
}
layer {
  name: "relu5_2"
  type: "ReLU"
  bottom: "conv5_2"
  top: "conv5_2"
}
layer {
  name: "pool5"
  type: "Pooling"
  bottom: "conv5_2"
  top: "pool5"
  pooling_param {
    pool: AVE
    kernel_size: 7
    stride: 1
  }
}
layer {
  name: "drop2"
  type: "Dropout"
  bottom: "pool5"
  top: "pool5"
  dropout_param {
    dropout_ratio: 0.4
  }
}
layer {
  name: "ip3"
  type: "InnerProduct"
  bottom: "pool5"
  top: "ip3"
  param {
    name: "ip3_w"
    lr_mult: 1
    decay_mult: 1
  }
  param {
    name: "ip3_b"
    lr_mult: 2
    decay_mult: 0
  }
  inner_product_param {
    num_output: 10575
    weight_filler {
      type: "xavier"
    }
    bias_filler {
      type: "constant"
    }
  }
}
layer {
  name: "loss"
  type: "SoftmaxWithLoss"
  bottom: "ip3"
  bottom: "label"
  top: "loss"
}
I0915 00:37:58.803411  9213 layer_factory.hpp:74] Creating layer data
I0915 00:37:58.803445  9213 net.cpp:90] Creating Layer data
I0915 00:37:58.803462  9213 net.cpp:368] data -> data
I0915 00:37:58.803498  9213 net.cpp:368] data -> label
I0915 00:37:58.803524  9213 net.cpp:120] Setting up data
I0915 00:37:58.803542  9213 data_transformer.cpp:22] Loading mean file from: data/face/patch/aligned_Casia_webFace/patchaligned_Casia_webFace_mean.binaryproto
I0915 00:37:58.807463  9213 db_lmdb.cpp:22] Opened lmdb examples/patches17/patchaligned_Casia_webFace_train_lmdb
I0915 00:37:58.807792  9213 data_layer.cpp:52] output data size: 64,3,100,100
I0915 00:37:58.811525  9213 net.cpp:127] Top shape: 64 3 100 100 (1920000)
I0915 00:37:58.811578  9213 net.cpp:127] Top shape: 64 (64)
I0915 00:37:58.811594  9213 layer_factory.hpp:74] Creating layer conv1
I0915 00:37:58.811617  9213 net.cpp:90] Creating Layer conv1
I0915 00:37:58.811637  9213 net.cpp:410] conv1 <- data
I0915 00:37:58.811661  9213 net.cpp:368] conv1 -> conv1
I0915 00:37:58.811679  9213 net.cpp:120] Setting up conv1
I0915 00:37:58.811738  9213 net.cpp:127] Top shape: 64 32 100 100 (20480000)
I0915 00:37:58.811759  9213 layer_factory.hpp:74] Creating layer relu1
I0915 00:37:58.811782  9213 net.cpp:90] Creating Layer relu1
I0915 00:37:58.811792  9213 net.cpp:410] relu1 <- conv1
I0915 00:37:58.811805  9213 net.cpp:357] relu1 -> conv1 (in-place)
I0915 00:37:58.811815  9213 net.cpp:120] Setting up relu1
I0915 00:37:58.811830  9213 net.cpp:127] Top shape: 64 32 100 100 (20480000)
I0915 00:37:58.811847  9213 layer_factory.hpp:74] Creating layer conv1_1
I0915 00:37:58.811861  9213 net.cpp:90] Creating Layer conv1_1
I0915 00:37:58.811871  9213 net.cpp:410] conv1_1 <- conv1
I0915 00:37:58.811882  9213 net.cpp:368] conv1_1 -> conv1_1
I0915 00:37:58.811895  9213 net.cpp:120] Setting up conv1_1
I0915 00:37:58.812063  9213 net.cpp:127] Top shape: 64 64 100 100 (40960000)
I0915 00:37:58.812083  9213 layer_factory.hpp:74] Creating layer relu1_1
I0915 00:37:58.812095  9213 net.cpp:90] Creating Layer relu1_1
I0915 00:37:58.812106  9213 net.cpp:410] relu1_1 <- conv1_1
I0915 00:37:58.812127  9213 net.cpp:357] relu1_1 -> conv1_1 (in-place)
I0915 00:37:58.812139  9213 net.cpp:120] Setting up relu1_1
I0915 00:37:58.812151  9213 net.cpp:127] Top shape: 64 64 100 100 (40960000)
I0915 00:37:58.812161  9213 layer_factory.hpp:74] Creating layer pool1
I0915 00:37:58.812181  9213 net.cpp:90] Creating Layer pool1
I0915 00:37:58.812191  9213 net.cpp:410] pool1 <- conv1_1
I0915 00:37:58.812206  9213 net.cpp:368] pool1 -> pool1
I0915 00:37:58.812221  9213 net.cpp:120] Setting up pool1
I0915 00:37:58.812245  9213 net.cpp:127] Top shape: 64 64 50 50 (10240000)
I0915 00:37:58.812258  9213 layer_factory.hpp:74] Creating layer conv2
I0915 00:37:58.812275  9213 net.cpp:90] Creating Layer conv2
I0915 00:37:58.812285  9213 net.cpp:410] conv2 <- pool1
I0915 00:37:58.812301  9213 net.cpp:368] conv2 -> conv2
I0915 00:37:58.812315  9213 net.cpp:120] Setting up conv2
I0915 00:37:58.812657  9213 net.cpp:127] Top shape: 64 64 50 50 (10240000)
I0915 00:37:58.812677  9213 layer_factory.hpp:74] Creating layer relu2
I0915 00:37:58.812692  9213 net.cpp:90] Creating Layer relu2
I0915 00:37:58.812702  9213 net.cpp:410] relu2 <- conv2
I0915 00:37:58.812715  9213 net.cpp:357] relu2 -> conv2 (in-place)
I0915 00:37:58.812726  9213 net.cpp:120] Setting up relu2
I0915 00:37:58.812736  9213 net.cpp:127] Top shape: 64 64 50 50 (10240000)
I0915 00:37:58.812747  9213 layer_factory.hpp:74] Creating layer conv2_2
I0915 00:37:58.812763  9213 net.cpp:90] Creating Layer conv2_2
I0915 00:37:58.812773  9213 net.cpp:410] conv2_2 <- conv2
I0915 00:37:58.812785  9213 net.cpp:368] conv2_2 -> conv2_2
I0915 00:37:58.812798  9213 net.cpp:120] Setting up conv2_2
I0915 00:37:58.813575  9213 net.cpp:127] Top shape: 64 128 50 50 (20480000)
I0915 00:37:58.813603  9213 layer_factory.hpp:74] Creating layer relu2_2
I0915 00:37:58.813617  9213 net.cpp:90] Creating Layer relu2_2
I0915 00:37:58.813627  9213 net.cpp:410] relu2_2 <- conv2_2
I0915 00:37:58.813639  9213 net.cpp:357] relu2_2 -> conv2_2 (in-place)
I0915 00:37:58.813652  9213 net.cpp:120] Setting up relu2_2
I0915 00:37:58.813664  9213 net.cpp:127] Top shape: 64 128 50 50 (20480000)
I0915 00:37:58.813674  9213 layer_factory.hpp:74] Creating layer pool2
I0915 00:37:58.813690  9213 net.cpp:90] Creating Layer pool2
I0915 00:37:58.813701  9213 net.cpp:410] pool2 <- conv2_2
I0915 00:37:58.813714  9213 net.cpp:368] pool2 -> pool2
I0915 00:37:58.813725  9213 net.cpp:120] Setting up pool2
I0915 00:37:58.813742  9213 net.cpp:127] Top shape: 64 128 25 25 (5120000)
I0915 00:37:58.813753  9213 layer_factory.hpp:74] Creating layer conv3
I0915 00:37:58.813766  9213 net.cpp:90] Creating Layer conv3
I0915 00:37:58.813776  9213 net.cpp:410] conv3 <- pool2
I0915 00:37:58.813808  9213 net.cpp:368] conv3 -> conv3
I0915 00:37:58.813824  9213 net.cpp:120] Setting up conv3
I0915 00:37:58.814843  9213 net.cpp:127] Top shape: 64 96 25 25 (3840000)
I0915 00:37:58.814877  9213 layer_factory.hpp:74] Creating layer relu3
I0915 00:37:58.814893  9213 net.cpp:90] Creating Layer relu3
I0915 00:37:58.814903  9213 net.cpp:410] relu3 <- conv3
I0915 00:37:58.814915  9213 net.cpp:357] relu3 -> conv3 (in-place)
I0915 00:37:58.814929  9213 net.cpp:120] Setting up relu3
I0915 00:37:58.814940  9213 net.cpp:127] Top shape: 64 96 25 25 (3840000)
I0915 00:37:58.814950  9213 layer_factory.hpp:74] Creating layer conv3_2
I0915 00:37:58.814966  9213 net.cpp:90] Creating Layer conv3_2
I0915 00:37:58.814976  9213 net.cpp:410] conv3_2 <- conv3
I0915 00:37:58.814988  9213 net.cpp:368] conv3_2 -> conv3_2
I0915 00:37:58.815001  9213 net.cpp:120] Setting up conv3_2
I0915 00:37:58.819015  9213 net.cpp:127] Top shape: 64 192 25 25 (7680000)
I0915 00:37:58.819090  9213 layer_factory.hpp:74] Creating layer relu3_2
I0915 00:37:58.819113  9213 net.cpp:90] Creating Layer relu3_2
I0915 00:37:58.819139  9213 net.cpp:410] relu3_2 <- conv3_2
I0915 00:37:58.819155  9213 net.cpp:357] relu3_2 -> conv3_2 (in-place)
I0915 00:37:58.819171  9213 net.cpp:120] Setting up relu3_2
I0915 00:37:58.819185  9213 net.cpp:127] Top shape: 64 192 25 25 (7680000)
I0915 00:37:58.819196  9213 layer_factory.hpp:74] Creating layer pool3
I0915 00:37:58.819214  9213 net.cpp:90] Creating Layer pool3
I0915 00:37:58.819226  9213 net.cpp:410] pool3 <- conv3_2
I0915 00:37:58.819238  9213 net.cpp:368] pool3 -> pool3
I0915 00:37:58.819252  9213 net.cpp:120] Setting up pool3
I0915 00:37:58.819268  9213 net.cpp:127] Top shape: 64 192 13 13 (2076672)
I0915 00:37:58.819279  9213 layer_factory.hpp:74] Creating layer conv4
I0915 00:37:58.819301  9213 net.cpp:90] Creating Layer conv4
I0915 00:37:58.819313  9213 net.cpp:410] conv4 <- pool3
I0915 00:37:58.819331  9213 net.cpp:368] conv4 -> conv4
I0915 00:37:58.819345  9213 net.cpp:120] Setting up conv4
I0915 00:37:58.822638  9213 net.cpp:127] Top shape: 64 128 13 13 (1384448)
I0915 00:37:58.822700  9213 layer_factory.hpp:74] Creating layer relu4_c
I0915 00:37:58.822721  9213 net.cpp:90] Creating Layer relu4_c
I0915 00:37:58.822734  9213 net.cpp:410] relu4_c <- conv4
I0915 00:37:58.822751  9213 net.cpp:357] relu4_c -> conv4 (in-place)
I0915 00:37:58.822765  9213 net.cpp:120] Setting up relu4_c
I0915 00:37:58.822779  9213 net.cpp:127] Top shape: 64 128 13 13 (1384448)
I0915 00:37:58.822792  9213 layer_factory.hpp:74] Creating layer conv4_2
I0915 00:37:58.822810  9213 net.cpp:90] Creating Layer conv4_2
I0915 00:37:58.822821  9213 net.cpp:410] conv4_2 <- conv4
I0915 00:37:58.822834  9213 net.cpp:368] conv4_2 -> conv4_2
I0915 00:37:58.822849  9213 net.cpp:120] Setting up conv4_2
I0915 00:37:58.825366  9213 net.cpp:127] Top shape: 64 256 13 13 (2768896)
I0915 00:37:58.825387  9213 layer_factory.hpp:74] Creating layer relu4_2
I0915 00:37:58.825402  9213 net.cpp:90] Creating Layer relu4_2
I0915 00:37:58.825418  9213 net.cpp:410] relu4_2 <- conv4_2
I0915 00:37:58.825430  9213 net.cpp:357] relu4_2 -> conv4_2 (in-place)
I0915 00:37:58.825444  9213 net.cpp:120] Setting up relu4_2
I0915 00:37:58.825459  9213 net.cpp:127] Top shape: 64 256 13 13 (2768896)
I0915 00:37:58.825469  9213 layer_factory.hpp:74] Creating layer pool4
I0915 00:37:58.825489  9213 net.cpp:90] Creating Layer pool4
I0915 00:37:58.825498  9213 net.cpp:410] pool4 <- conv4_2
I0915 00:37:58.825516  9213 net.cpp:368] pool4 -> pool4
I0915 00:37:58.825531  9213 net.cpp:120] Setting up pool4
I0915 00:37:58.825546  9213 net.cpp:127] Top shape: 64 256 7 7 (802816)
I0915 00:37:58.825557  9213 layer_factory.hpp:74] Creating layer conv5
I0915 00:37:58.825577  9213 net.cpp:90] Creating Layer conv5
I0915 00:37:58.825587  9213 net.cpp:410] conv5 <- pool4
I0915 00:37:58.825600  9213 net.cpp:368] conv5 -> conv5
I0915 00:37:58.825613  9213 net.cpp:120] Setting up conv5
I0915 00:37:58.832546  9213 net.cpp:127] Top shape: 64 160 7 7 (501760)
I0915 00:37:58.832666  9213 layer_factory.hpp:74] Creating layer relu5_c
I0915 00:37:58.832691  9213 net.cpp:90] Creating Layer relu5_c
I0915 00:37:58.832703  9213 net.cpp:410] relu5_c <- conv5
I0915 00:37:58.832717  9213 net.cpp:357] relu5_c -> conv5 (in-place)
I0915 00:37:58.832732  9213 net.cpp:120] Setting up relu5_c
I0915 00:37:58.832744  9213 net.cpp:127] Top shape: 64 160 7 7 (501760)
I0915 00:37:58.832756  9213 layer_factory.hpp:74] Creating layer conv5_2
I0915 00:37:58.832772  9213 net.cpp:90] Creating Layer conv5_2
I0915 00:37:58.832782  9213 net.cpp:410] conv5_2 <- conv5
I0915 00:37:58.832795  9213 net.cpp:368] conv5_2 -> conv5_2
I0915 00:37:58.832810  9213 net.cpp:120] Setting up conv5_2
I0915 00:37:58.839133  9213 net.cpp:127] Top shape: 64 320 7 7 (1003520)
I0915 00:37:58.839216  9213 layer_factory.hpp:74] Creating layer relu5_2
I0915 00:37:58.839241  9213 net.cpp:90] Creating Layer relu5_2
I0915 00:37:58.839254  9213 net.cpp:410] relu5_2 <- conv5_2
I0915 00:37:58.839269  9213 net.cpp:357] relu5_2 -> conv5_2 (in-place)
I0915 00:37:58.839287  9213 net.cpp:120] Setting up relu5_2
I0915 00:37:58.839303  9213 net.cpp:127] Top shape: 64 320 7 7 (1003520)
I0915 00:37:58.839318  9213 layer_factory.hpp:74] Creating layer pool5
I0915 00:37:58.839340  9213 net.cpp:90] Creating Layer pool5
I0915 00:37:58.839372  9213 net.cpp:410] pool5 <- conv5_2
I0915 00:37:58.839439  9213 net.cpp:368] pool5 -> pool5
I0915 00:37:58.840631  9213 net.cpp:120] Setting up pool5
I0915 00:37:58.840724  9213 net.cpp:127] Top shape: 64 320 1 1 (20480)
I0915 00:37:58.840739  9213 layer_factory.hpp:74] Creating layer drop2
I0915 00:37:58.840772  9213 net.cpp:90] Creating Layer drop2
I0915 00:37:58.840790  9213 net.cpp:410] drop2 <- pool5
I0915 00:37:58.840809  9213 net.cpp:357] drop2 -> pool5 (in-place)
I0915 00:37:58.840828  9213 net.cpp:120] Setting up drop2
I0915 00:37:58.840848  9213 net.cpp:127] Top shape: 64 320 1 1 (20480)
I0915 00:37:58.840860  9213 layer_factory.hpp:74] Creating layer ip3
I0915 00:37:58.840890  9213 net.cpp:90] Creating Layer ip3
I0915 00:37:58.840905  9213 net.cpp:410] ip3 <- pool5
I0915 00:37:58.840919  9213 net.cpp:368] ip3 -> ip3
I0915 00:37:58.840937  9213 net.cpp:120] Setting up ip3
I0915 00:37:58.884629  9213 net.cpp:127] Top shape: 64 10575 (676800)
I0915 00:37:58.884733  9213 layer_factory.hpp:74] Creating layer loss
I0915 00:37:58.884760  9213 net.cpp:90] Creating Layer loss
I0915 00:37:58.884773  9213 net.cpp:410] loss <- ip3
I0915 00:37:58.884788  9213 net.cpp:410] loss <- label
I0915 00:37:58.884809  9213 net.cpp:368] loss -> loss
I0915 00:37:58.884829  9213 net.cpp:120] Setting up loss
I0915 00:37:58.884846  9213 layer_factory.hpp:74] Creating layer loss
…
I0915 00:37:58.892369  9213 net.cpp:287] The NetState phase (1) differed from the phase (0) specified by a rule in layer data
I0915 00:37:58.892707  9213 net.cpp:42] Initializing net from parameters: 
name: "LeNet"
state {
  phase: TEST
}
layer {
  name: "data"
  type: "Data"
  top: "data"
  top: "label"
  include {
    phase: TEST
  }
  transform_param {
    mean_file: "data/face/patch/aligned_Casia_webFace/patchaligned_Casia_webFace_mean.binaryproto"
  }
  data_param {
    source: "examples/patches17/patchaligned_Casia_webFace_val_lmdb"
    batch_size: 64
    backend: LMDB
  }
}
layer {
  name: "conv1"
  type: "Convolution"
  bottom: "data"
  top: "conv1"
  param {
    name: "conv1_w"
    lr_mult: 1
    decay_mult: 1
  }
  param {
    name: "conv1_b"
    lr_mult: 2
    decay_mult: 0
  }
  convolution_param {
    num_output: 32
    pad: 1
    kernel_size: 3
    stride: 1
    weight_filler {
      type: "xavier"
    }
    bias_filler {
      type: "constant"
    }
  }
}
layer {
  name: "relu1"
  type: "ReLU"
  bottom: "conv1"
  top: "conv1"
}
layer {
  name: "conv1_1"
  type: "Convolution"
  bottom: "conv1"
  top: "conv1_1"
  param {
    name: "conv1_1_w"
    lr_mult: 1
    decay_mult: 1
  }
  param {
    name: "conv1_1_b"
    lr_mult: 2
    decay_mult: 0
  }
  convolution_param {
    num_output: 64
    pad: 1
    kernel_size: 3
    stride: 1
    weight_filler {
      type: "xavier"
    }
    bias_filler {
      type: "constant"
    }
  }
}
layer {
  name: "relu1_1"
  type: "ReLU"
  bottom: "conv1_1"
  top: "conv1_1"
}
layer {
  name: "pool1"
  type: "Pooling"
  bottom: "conv1_1"
  top: "pool1"
  pooling_param {
    pool: MAX
    kernel_size: 2
    stride: 2
  }
}
layer {
  name: "conv2"
  type: "Convolution"
  bottom: "pool1"
  top: "conv2"
  param {
    name: "conv2_w"
    lr_mult: 1
    decay_mult: 1
  }
  param {
    name: "conv2_b"
    lr_mult: 2
    decay_mult: 0
  }
  convolution_param {
    num_output: 64
    pad: 1
    kernel_size: 3
    stride: 1
    weight_filler {
      type: "xavier"
    }
    bias_filler {
      type: "constant"
    }
  }
}
layer {
  name: "relu2"
  type: "ReLU"
  bottom: "conv2"
  top: "conv2"
}
layer {
  name: "conv2_2"
  type: "Convolution"
  bottom: "conv2"
  top: "conv2_2"
  param {
    name: "conv2_2_w"
    lr_mult: 1
    decay_mult: 1
  }
  param {
    name: "conv2_2_b"
    lr_mult: 2
    decay_mult: 0
  }
  convolution_param {
    num_output: 128
    pad: 1
    kernel_size: 3
    stride: 1
    weight_filler {
      type: "xavier"
    }
    bias_filler {
      type: "constant"
    }
  }
}
layer {
  name: "relu2_2"
  type: "ReLU"
  bottom: "conv2_2"
  top: "conv2_2"
}
layer {
  name: "pool2"
  type: "Pooling"
  bottom: "conv2_2"
  top: "pool2"
  pooling_param {
    pool: MAX
    kernel_size: 2
    stride: 2
  }
}
layer {
  name: "conv3"
  type: "Convolution"
  bottom: "pool2"
  top: "conv3"
  param {
    name: "conv3_w"
    lr_mult: 1
    decay_mult: 1
  }
  param {
    name: "conv3_b"
    lr_mult: 2
    decay_mult: 0
  }
  convolution_param {
    num_output: 96
    pad: 1
    kernel_size: 3
    stride: 1
    weight_filler {
      type: "xavier"
    }
    bias_filler {
      type: "constant"
    }
  }
}
layer {
  name: "relu3"
  type: "ReLU"
  bottom: "conv3"
  top: "conv3"
}
layer {
  name: "conv3_2"
  type: "Convolution"
  bottom: "conv3"
  top: "conv3_2"
  param {
    name: "conv3_2_w"
    lr_mult: 1
    decay_mult: 1
  }
  param {
    name: "conv3_@_b"
    lr_mult: 2
    decay_mult: 0
  }
  convolution_param {
    num_output: 192
    pad: 1
    kernel_size: 3
    stride: 1
    weight_filler {
      type: "xavier"
    }
    bias_filler {
      type: "constant"
    }
  }
}
layer {
  name: "relu3_2"
  type: "ReLU"
  bottom: "conv3_2"
  top: "conv3_2"
}
layer {
  name: "pool3"
  type: "Pooling"
  bottom: "conv3_2"
  top: "pool3"
  pooling_param {
    pool: MAX
    kernel_size: 2
    stride: 2
  }
}
layer {
  name: "conv4"
  type: "Convolution"
  bottom: "pool3"
  top: "conv4"
  param {
    name: "conv4_w"
    lr_mult: 1
    decay_mult: 1
  }
  param {
    name: "conv4_b"
    lr_mult: 2
    decay_mult: 0
  }
  convolution_param {
    num_output: 128
    pad: 1
    kernel_size: 3
    stride: 1
    weight_filler {
      type: "xavier"
    }
    bias_filler {
      type: "constant"
    }
  }
}
layer {
  name: "relu4_c"
  type: "ReLU"
  bottom: "conv4"
  top: "conv4"
}
layer {
  name: "conv4_2"
  type: "Convolution"
  bottom: "conv4"
  top: "conv4_2"
  param {
    name: "conv4_2_w"
    lr_mult: 1
    decay_mult: 1
  }
  param {
    name: "conv4_2_b"
    lr_mult: 2
    decay_mult: 0
  }
  convolution_param {
    num_output: 256
    pad: 1
    kernel_size: 3
    stride: 1
    weight_filler {
      type: "xavier"
    }
    bias_filler {
      type: "constant"
    }
  }
}
layer {
  name: "relu4_2"
  type: "ReLU"
  bottom: "conv4_2"
  top: "conv4_2"
}
layer {
  name: "pool4"
  type: "Pooling"
  bottom: "conv4_2"
  top: "pool4"
  pooling_param {
    pool: MAX
    kernel_size: 2
    stride: 2
  }
}
layer {
  name: "conv5"
  type: "Convolution"
  bottom: "pool4"
  top: "conv5"
  param {
    name: "conv5_w"
    lr_mult: 1
    decay_mult: 1
  }
  param {
    name: "conv5_b"
    lr_mult: 2
    decay_mult: 0
  }
  convolution_param {
    num_output: 160
    pad: 1
    kernel_size: 3
    stride: 1
    weight_filler {
      type: "xavier"
    }
    bias_filler {
      type: "constant"
    }
  }
}
layer {
  name: "relu5_c"
  type: "ReLU"
  bottom: "conv5"
  top: "conv5"
}
layer {
  name: "conv5_2"
  type: "Convolution"
  bottom: "conv5"
  top: "conv5_2"
  param {
    name: "conv5_2_w"
    lr_mult: 1
    decay_mult: 1
  }
  param {
    name: "conv5_2_b"
    lr_mult: 2
    decay_mult: 0
  }
  convolution_param {
    num_output: 320
    pad: 1
    kernel_size: 3
    stride: 1
    weight_filler {
      type: "xavier"
    }
    bias_filler {
      type: "constant"
    }
  }
}
layer {
  name: "relu5_2"
  type: "ReLU"
  bottom: "conv5_2"
  top: "conv5_2"
}
layer {
  name: "pool5"
  type: "Pooling"
  bottom: "conv5_2"
  top: "pool5"
  pooling_param {
    pool: AVE
    kernel_size: 7
    stride: 1
  }
}
layer {
  name: "drop2"
  type: "Dropout"
  bottom: "pool5"
  top: "pool5"
  dropout_param {
    dropout_ratio: 0.4
  }
}
layer {
  name: "ip3"
  type: "InnerProduct"
  bottom: "pool5"
  top: "ip3"
  param {
    name: "ip3_w"
    lr_mult: 1
    decay_mult: 1
  }
  param {
    name: "ip3_b"
    lr_mult: 2
    decay_mult: 0
  }
  inner_product_param {
    num_output: 10575
    weight_filler {
      type: "xavier"
    }
    bias_filler {
      type: "constant"
    }
  }
}
layer {
  name: "accuracy"
  type: "Accuracy"
  bottom: "ip3"
  bottom: "label"
  top: "accuracy"
  include {
    phase: TEST
  }
}
layer {
  name: "loss"
  type: "SoftmaxWithLoss"
  bottom: "ip3"
  bottom: "label"
  top: "loss"
}
I0915 00:37:58.894598  9213 layer_factory.hpp:74] Creating layer data
I0915 00:37:58.894625  9213 net.cpp:90] Creating Layer data
I0915 00:37:58.894639  9213 net.cpp:368] data -> data
I0915 00:37:58.894659  9213 net.cpp:368] data -> label
I0915 00:37:58.894680  9213 net.cpp:120] Setting up data
I0915 00:37:58.894692  9213 data_transformer.cpp:22] Loading mean file from: data/face/patch/aligned_Casia_webFace/patchaligned_Casia_webFace_mean.binaryproto
I0915 00:37:58.896827  9213 db_lmdb.cpp:22] Opened lmdb examples/patches17/patchaligned_Casia_webFace_val_lmdb
I0915 00:37:58.897069  9213 data_layer.cpp:52] output data size: 64,3,100,100
I0915 00:37:58.905210  9213 net.cpp:127] Top shape: 64 3 100 100 (1920000)
I0915 00:37:58.905273  9213 net.cpp:127] Top shape: 64 (64)
I0915 00:37:58.905292  9213 layer_factory.hpp:74] Creating layer label_data_1_split
I0915 00:37:58.905323  9213 net.cpp:90] Creating Layer label_data_1_split
I0915 00:37:58.905335  9213 net.cpp:410] label_data_1_split <- label
I0915 00:37:58.905351  9213 net.cpp:368] label_data_1_split -> label_data_1_split_0
I0915 00:37:58.905370  9213 net.cpp:368] label_data_1_split -> label_data_1_split_1
I0915 00:37:58.905385  9213 net.cpp:120] Setting up label_data_1_split
I0915 00:37:58.905401  9213 net.cpp:127] Top shape: 64 (64)
I0915 00:37:58.905423  9213 net.cpp:127] Top shape: 64 (64)
I0915 00:37:58.905436  9213 layer_factory.hpp:74] Creating layer conv1
I0915 00:37:58.905462  9213 net.cpp:90] Creating Layer conv1
I0915 00:37:58.905473  9213 net.cpp:410] conv1 <- data
I0915 00:37:58.905488  9213 net.cpp:368] conv1 -> conv1
I0915 00:37:58.905503  9213 net.cpp:120] Setting up conv1
I0915 00:37:58.905549  9213 net.cpp:127] Top shape: 64 32 100 100 (20480000)
I0915 00:37:58.905565  9213 layer_factory.hpp:74] Creating layer relu1
I0915 00:37:58.905580  9213 net.cpp:90] Creating Layer relu1
I0915 00:37:58.905591  9213 net.cpp:410] relu1 <- conv1
I0915 00:37:58.905602  9213 net.cpp:357] relu1 -> conv1 (in-place)
I0915 00:37:58.905617  9213 net.cpp:120] Setting up relu1
I0915 00:37:58.905629  9213 net.cpp:127] Top shape: 64 32 100 100 (20480000)
I0915 00:37:58.905639  9213 layer_factory.hpp:74] Creating layer conv1_1
I0915 00:37:58.905655  9213 net.cpp:90] Creating Layer conv1_1
I0915 00:37:58.905666  9213 net.cpp:410] conv1_1 <- conv1
I0915 00:37:58.905680  9213 net.cpp:368] conv1_1 -> conv1_1
I0915 00:37:58.905694  9213 net.cpp:120] Setting up conv1_1
I0915 00:37:58.905869  9213 net.cpp:127] Top shape: 64 64 100 100 (40960000)
I0915 00:37:58.905886  9213 layer_factory.hpp:74] Creating layer relu1_1
I0915 00:37:58.905900  9213 net.cpp:90] Creating Layer relu1_1
I0915 00:37:58.905910  9213 net.cpp:410] relu1_1 <- conv1_1
I0915 00:37:58.905923  9213 net.cpp:357] relu1_1 -> conv1_1 (in-place)
I0915 00:37:58.905936  9213 net.cpp:120] Setting up relu1_1
I0915 00:37:58.905947  9213 net.cpp:127] Top shape: 64 64 100 100 (40960000)
I0915 00:37:58.905957  9213 layer_factory.hpp:74] Creating layer pool1
I0915 00:37:58.905971  9213 net.cpp:90] Creating Layer pool1
I0915 00:37:58.905980  9213 net.cpp:410] pool1 <- conv1_1
I0915 00:37:58.905992  9213 net.cpp:368] pool1 -> pool1
I0915 00:37:58.906005  9213 net.cpp:120] Setting up pool1
I0915 00:37:58.906020  9213 net.cpp:127] Top shape: 64 64 50 50 (10240000)
I0915 00:37:58.906030  9213 layer_factory.hpp:74] Creating layer conv2
I0915 00:37:58.906047  9213 net.cpp:90] Creating Layer conv2
I0915 00:37:58.906057  9213 net.cpp:410] conv2 <- pool1
I0915 00:37:58.906071  9213 net.cpp:368] conv2 -> conv2
I0915 00:37:58.906085  9213 net.cpp:120] Setting up conv2
I0915 00:37:58.906430  9213 net.cpp:127] Top shape: 64 64 50 50 (10240000)
I0915 00:37:58.906455  9213 layer_factory.hpp:74] Creating layer relu2
I0915 00:37:58.906476  9213 net.cpp:90] Creating Layer relu2
I0915 00:37:58.906488  9213 net.cpp:410] relu2 <- conv2
I0915 00:37:58.906500  9213 net.cpp:357] relu2 -> conv2 (in-place)
I0915 00:37:58.906512  9213 net.cpp:120] Setting up relu2
I0915 00:37:58.906529  9213 net.cpp:127] Top shape: 64 64 50 50 (10240000)
I0915 00:37:58.906589  9213 layer_factory.hpp:74] Creating layer conv2_2
I0915 00:37:58.906608  9213 net.cpp:90] Creating Layer conv2_2
I0915 00:37:58.906623  9213 net.cpp:410] conv2_2 <- conv2
I0915 00:37:58.906637  9213 net.cpp:368] conv2_2 -> conv2_2
I0915 00:37:58.906653  9213 net.cpp:120] Setting up conv2_2
I0915 00:37:58.907335  9213 net.cpp:127] Top shape: 64 128 50 50 (20480000)
I0915 00:37:58.909593  9213 layer_factory.hpp:74] Creating layer relu2_2
I0915 00:37:58.909644  9213 net.cpp:90] Creating Layer relu2_2
I0915 00:37:58.909662  9213 net.cpp:410] relu2_2 <- conv2_2
I0915 00:37:58.909690  9213 net.cpp:357] relu2_2 -> conv2_2 (in-place)
I0915 00:37:58.909709  9213 net.cpp:120] Setting up relu2_2
I0915 00:37:58.909728  9213 net.cpp:127] Top shape: 64 128 50 50 (20480000)
I0915 00:37:58.909739  9213 layer_factory.hpp:74] Creating layer pool2
I0915 00:37:58.909754  9213 net.cpp:90] Creating Layer pool2
I0915 00:37:58.909765  9213 net.cpp:410] pool2 <- conv2_2
I0915 00:37:58.909777  9213 net.cpp:368] pool2 -> pool2
I0915 00:37:58.909792  9213 net.cpp:120] Setting up pool2
I0915 00:37:58.909811  9213 net.cpp:127] Top shape: 64 128 25 25 (5120000)
I0915 00:37:58.909821  9213 layer_factory.hpp:74] Creating layer conv3
I0915 00:37:58.909840  9213 net.cpp:90] Creating Layer conv3
I0915 00:37:58.909852  9213 net.cpp:410] conv3 <- pool2
I0915 00:37:58.909868  9213 net.cpp:368] conv3 -> conv3
I0915 00:37:58.909883  9213 net.cpp:120] Setting up conv3
I0915 00:37:58.912600  9213 net.cpp:127] Top shape: 64 96 25 25 (3840000)
I0915 00:37:58.912665  9213 layer_factory.hpp:74] Creating layer relu3
I0915 00:37:58.912686  9213 net.cpp:90] Creating Layer relu3
I0915 00:37:58.912698  9213 net.cpp:410] relu3 <- conv3
I0915 00:37:58.912714  9213 net.cpp:357] relu3 -> conv3 (in-place)
I0915 00:37:58.912729  9213 net.cpp:120] Setting up relu3
I0915 00:37:58.912742  9213 net.cpp:127] Top shape: 64 96 25 25 (3840000)
I0915 00:37:58.912752  9213 layer_factory.hpp:74] Creating layer conv3_2
I0915 00:37:58.912770  9213 net.cpp:90] Creating Layer conv3_2
I0915 00:37:58.912781  9213 net.cpp:410] conv3_2 <- conv3
I0915 00:37:58.912801  9213 net.cpp:368] conv3_2 -> conv3_2
I0915 00:37:58.912814  9213 net.cpp:120] Setting up conv3_2
I0915 00:37:58.914263  9213 net.cpp:127] Top shape: 64 192 25 25 (7680000)
I0915 00:37:58.914286  9213 layer_factory.hpp:74] Creating layer relu3_2
I0915 00:37:58.914299  9213 net.cpp:90] Creating Layer relu3_2
I0915 00:37:58.914310  9213 net.cpp:410] relu3_2 <- conv3_2
I0915 00:37:58.914321  9213 net.cpp:357] relu3_2 -> conv3_2 (in-place)
I0915 00:37:58.914335  9213 net.cpp:120] Setting up relu3_2
I0915 00:37:58.914345  9213 net.cpp:127] Top shape: 64 192 25 25 (7680000)
I0915 00:37:58.914356  9213 layer_factory.hpp:74] Creating layer pool3
I0915 00:37:58.914376  9213 net.cpp:90] Creating Layer pool3
I0915 00:37:58.914387  9213 net.cpp:410] pool3 <- conv3_2
I0915 00:37:58.914399  9213 net.cpp:368] pool3 -> pool3
I0915 00:37:58.914414  9213 net.cpp:120] Setting up pool3
I0915 00:37:58.914432  9213 net.cpp:127] Top shape: 64 192 13 13 (2076672)
I0915 00:37:58.914441  9213 layer_factory.hpp:74] Creating layer conv4
I0915 00:37:58.914458  9213 net.cpp:90] Creating Layer conv4
I0915 00:37:58.914470  9213 net.cpp:410] conv4 <- pool3
I0915 00:37:58.914482  9213 net.cpp:368] conv4 -> conv4
I0915 00:37:58.914495  9213 net.cpp:120] Setting up conv4
I0915 00:37:58.916321  9213 net.cpp:127] Top shape: 64 128 13 13 (1384448)
I0915 00:37:58.916349  9213 layer_factory.hpp:74] Creating layer relu4_c
I0915 00:37:58.916369  9213 net.cpp:90] Creating Layer relu4_c
I0915 00:37:58.916384  9213 net.cpp:410] relu4_c <- conv4
I0915 00:37:58.916404  9213 net.cpp:357] relu4_c -> conv4 (in-place)
I0915 00:37:58.916424  9213 net.cpp:120] Setting up relu4_c
I0915 00:37:58.916441  9213 net.cpp:127] Top shape: 64 128 13 13 (1384448)
I0915 00:37:58.916457  9213 layer_factory.hpp:74] Creating layer conv4_2
I0915 00:37:58.916481  9213 net.cpp:90] Creating Layer conv4_2
I0915 00:37:58.916496  9213 net.cpp:410] conv4_2 <- conv4
I0915 00:37:58.916568  9213 net.cpp:368] conv4_2 -> conv4_2
I0915 00:37:58.916597  9213 net.cpp:120] Setting up conv4_2
I0915 00:37:58.922791  9213 net.cpp:127] Top shape: 64 256 13 13 (2768896)
I0915 00:37:58.922859  9213 layer_factory.hpp:74] Creating layer relu4_2
I0915 00:37:58.922883  9213 net.cpp:90] Creating Layer relu4_2
I0915 00:37:58.922896  9213 net.cpp:410] relu4_2 <- conv4_2
I0915 00:37:58.922911  9213 net.cpp:357] relu4_2 -> conv4_2 (in-place)
I0915 00:37:58.922927  9213 net.cpp:120] Setting up relu4_2
I0915 00:37:58.922940  9213 net.cpp:127] Top shape: 64 256 13 13 (2768896)
I0915 00:37:58.922950  9213 layer_factory.hpp:74] Creating layer pool4
I0915 00:37:58.922965  9213 net.cpp:90] Creating Layer pool4
I0915 00:37:58.922973  9213 net.cpp:410] pool4 <- conv4_2
I0915 00:37:58.922987  9213 net.cpp:368] pool4 -> pool4
I0915 00:37:58.923002  9213 net.cpp:120] Setting up pool4
I0915 00:37:58.923018  9213 net.cpp:127] Top shape: 64 256 7 7 (802816)
I0915 00:37:58.923029  9213 layer_factory.hpp:74] Creating layer conv5
I0915 00:37:58.923044  9213 net.cpp:90] Creating Layer conv5
I0915 00:37:58.923054  9213 net.cpp:410] conv5 <- pool4
I0915 00:37:58.923070  9213 net.cpp:368] conv5 -> conv5
I0915 00:37:58.923087  9213 net.cpp:120] Setting up conv5
I0915 00:37:58.927762  9213 net.cpp:127] Top shape: 64 160 7 7 (501760)
I0915 00:37:58.929009  9213 layer_factory.hpp:74] Creating layer relu5_c
I0915 00:37:58.929100  9213 net.cpp:90] Creating Layer relu5_c
I0915 00:37:58.929116  9213 net.cpp:410] relu5_c <- conv5
I0915 00:37:58.929132  9213 net.cpp:357] relu5_c -> conv5 (in-place)
I0915 00:37:58.929149  9213 net.cpp:120] Setting up relu5_c
I0915 00:37:58.929167  9213 net.cpp:127] Top shape: 64 160 7 7 (501760)
I0915 00:37:58.929178  9213 layer_factory.hpp:74] Creating layer conv5_2
I0915 00:37:58.929199  9213 net.cpp:90] Creating Layer conv5_2
I0915 00:37:58.929211  9213 net.cpp:410] conv5_2 <- conv5
I0915 00:37:58.929224  9213 net.cpp:368] conv5_2 -> conv5_2
I0915 00:37:58.929239  9213 net.cpp:120] Setting up conv5_2
I0915 00:37:58.933693  9213 net.cpp:127] Top shape: 64 320 7 7 (1003520)
I0915 00:37:58.933749  9213 layer_factory.hpp:74] Creating layer relu5_2
I0915 00:37:58.933771  9213 net.cpp:90] Creating Layer relu5_2
I0915 00:37:58.933785  9213 net.cpp:410] relu5_2 <- conv5_2
I0915 00:37:58.933800  9213 net.cpp:357] relu5_2 -> conv5_2 (in-place)
I0915 00:37:58.933816  9213 net.cpp:120] Setting up relu5_2
I0915 00:37:58.933830  9213 net.cpp:127] Top shape: 64 320 7 7 (1003520)
I0915 00:37:58.933841  9213 layer_factory.hpp:74] Creating layer pool5
I0915 00:37:58.933856  9213 net.cpp:90] Creating Layer pool5
I0915 00:37:58.933866  9213 net.cpp:410] pool5 <- conv5_2
I0915 00:37:58.933881  9213 net.cpp:368] pool5 -> pool5
I0915 00:37:58.933895  9213 net.cpp:120] Setting up pool5
I0915 00:37:58.933910  9213 net.cpp:127] Top shape: 64 320 1 1 (20480)
I0915 00:37:58.933922  9213 layer_factory.hpp:74] Creating layer drop2
I0915 00:37:58.933935  9213 net.cpp:90] Creating Layer drop2
I0915 00:37:58.933946  9213 net.cpp:410] drop2 <- pool5
I0915 00:37:58.933958  9213 net.cpp:357] drop2 -> pool5 (in-place)
I0915 00:37:58.933974  9213 net.cpp:120] Setting up drop2
I0915 00:37:58.933989  9213 net.cpp:127] Top shape: 64 320 1 1 (20480)
I0915 00:37:58.934000  9213 layer_factory.hpp:74] Creating layer ip3
I0915 00:37:58.934015  9213 net.cpp:90] Creating Layer ip3
I0915 00:37:58.934026  9213 net.cpp:410] ip3 <- pool5
I0915 00:37:58.934038  9213 net.cpp:368] ip3 -> ip3
I0915 00:37:58.934052  9213 net.cpp:120] Setting up ip3
I0915 00:37:58.981638  9213 net.cpp:127] Top shape: 64 10575 (676800)
I0915 00:37:58.981706  9213 layer_factory.hpp:74] Creating layer ip3_ip3_0_split
I0915 00:37:58.981725  9213 net.cpp:90] Creating Layer ip3_ip3_0_split
I0915 00:37:58.981739  9213 net.cpp:410] ip3_ip3_0_split <- ip3
I0915 00:37:58.981753  9213 net.cpp:368] ip3_ip3_0_split -> ip3_ip3_0_split_0
I0915 00:37:58.981770  9213 net.cpp:368] ip3_ip3_0_split -> ip3_ip3_0_split_1
I0915 00:37:58.981782  9213 net.cpp:120] Setting up ip3_ip3_0_split
I0915 00:37:58.983403  9213 net.cpp:127] Top shape: 64 10575 (676800)
I0915 00:37:58.983430  9213 net.cpp:127] Top shape: 64 10575 (676800)
I0915 00:37:58.983444  9213 layer_factory.hpp:74] Creating layer accuracy
I0915 00:37:58.983484  9213 net.cpp:90] Creating Layer accuracy
I0915 00:37:58.983502  9213 net.cpp:410] accuracy <- ip3_ip3_0_split_0
I0915 00:37:58.983517  9213 net.cpp:410] accuracy <- label_data_1_split_0
I0915 00:37:58.983530  9213 net.cpp:368] accuracy -> accuracy
I0915 00:37:58.983547  9213 net.cpp:120] Setting up accuracy
…
