…
I0929 21:43:47.537643 20270 net.cpp:287] The NetState phase (0) differed from the phase (1) specified by a rule in layer accuracy
I0929 21:43:47.537830 20270 net.cpp:42] Initializing net from parameters: 
name: "LeNet"
state {
  phase: TRAIN
}
layer {
  name: "data"
  type: "Data"
  top: "data"
  top: "label"
  include {
    phase: TRAIN
  }
  transform_param {
    mirror: true
    mean_file: "data/face/patch/Normalized/patchNormalized_mean.binaryproto"
  }
  data_param {
    source: "examples/patches17/patchNormalized_train_lmdb"
    batch_size: 64
    backend: LMDB
  }
}
layer {
  name: "conv1"
  type: "Convolution"
  bottom: "data"
  top: "conv1"
  param {
    name: "conv1_w"
    lr_mult: 1
    decay_mult: 1
  }
  param {
    name: "conv1_b"
    lr_mult: 2
    decay_mult: 0
  }
  convolution_param {
    num_output: 32
    pad: 1
    kernel_size: 3
    stride: 1
    weight_filler {
      type: "xavier"
    }
    bias_filler {
      type: "constant"
    }
  }
}
layer {
  name: "relu1"
  type: "ReLU"
  bottom: "conv1"
  top: "conv1"
}
layer {
  name: "conv1_1"
  type: "Convolution"
  bottom: "conv1"
  top: "conv1_1"
  param {
    name: "conv1_1_w"
    lr_mult: 1
    decay_mult: 1
  }
  param {
    name: "conv1_1_b"
    lr_mult: 2
    decay_mult: 0
  }
  convolution_param {
    num_output: 64
    pad: 1
    kernel_size: 3
    stride: 1
    weight_filler {
      type: "xavier"
    }
    bias_filler {
      type: "constant"
    }
  }
}
layer {
  name: "relu1_1"
  type: "ReLU"
  bottom: "conv1_1"
  top: "conv1_1"
}
layer {
  name: "pool1"
  type: "Pooling"
  bottom: "conv1_1"
  top: "pool1"
  pooling_param {
    pool: MAX
    kernel_size: 2
    stride: 2
  }
}
layer {
  name: "conv2"
  type: "Convolution"
  bottom: "pool1"
  top: "conv2"
  param {
    name: "conv2_w"
    lr_mult: 1
    decay_mult: 1
  }
  param {
    name: "conv2_b"
    lr_mult: 2
    decay_mult: 0
  }
  convolution_param {
    num_output: 64
    pad: 1
    kernel_size: 3
    stride: 1
    weight_filler {
      type: "xavier"
    }
    bias_filler {
      type: "constant"
    }
  }
}
layer {
  name: "relu2"
  type: "ReLU"
  bottom: "conv2"
  top: "conv2"
}
layer {
  name: "conv2_2"
  type: "Convolution"
  bottom: "conv2"
  top: "conv2_2"
  param {
    name: "conv2_2_w"
    lr_mult: 1
    decay_mult: 1
  }
  param {
    name: "conv2_2_b"
    lr_mult: 2
    decay_mult: 0
  }
  convolution_param {
    num_output: 128
    pad: 1
    kernel_size: 3
    stride: 1
    weight_filler {
      type: "xavier"
    }
    bias_filler {
      type: "constant"
    }
  }
}
layer {
  name: "relu2_2"
  type: "ReLU"
  bottom: "conv2_2"
  top: "conv2_2"
}
layer {
  name: "pool2"
  type: "Pooling"
  bottom: "conv2_2"
  top: "pool2"
  pooling_param {
    pool: MAX
    kernel_size: 2
    stride: 2
  }
}
layer {
  name: "conv3"
  type: "Convolution"
  bottom: "pool2"
  top: "conv3"
  param {
    name: "conv3_w"
    lr_mult: 1
    decay_mult: 1
  }
  param {
    name: "conv3_b"
    lr_mult: 2
    decay_mult: 0
  }
  convolution_param {
    num_output: 96
    pad: 1
    kernel_size: 3
    stride: 1
    weight_filler {
      type: "xavier"
    }
    bias_filler {
      type: "constant"
    }
  }
}
layer {
  name: "relu3"
  type: "ReLU"
  bottom: "conv3"
  top: "conv3"
}
layer {
  name: "conv3_2"
  type: "Convolution"
  bottom: "conv3"
  top: "conv3_2"
  param {
    name: "conv3_2_w"
    lr_mult: 1
    decay_mult: 1
  }
  param {
    name: "conv3_@_b"
    lr_mult: 2
    decay_mult: 0
  }
  convolution_param {
    num_output: 192
    pad: 1
    kernel_size: 3
    stride: 1
    weight_filler {
      type: "xavier"
    }
    bias_filler {
      type: "constant"
    }
  }
}
layer {
  name: "relu3_2"
  type: "ReLU"
  bottom: "conv3_2"
  top: "conv3_2"
}
layer {
  name: "pool3"
  type: "Pooling"
  bottom: "conv3_2"
  top: "pool3"
  pooling_param {
    pool: MAX
    kernel_size: 2
    stride: 2
  }
}
layer {
  name: "conv4"
  type: "Convolution"
  bottom: "pool3"
  top: "conv4"
  param {
    name: "conv4_w"
    lr_mult: 1
    decay_mult: 1
  }
  param {
    name: "conv4_b"
    lr_mult: 2
    decay_mult: 0
  }
  convolution_param {
    num_output: 128
    pad: 1
    kernel_size: 3
    stride: 1
    weight_filler {
      type: "xavier"
    }
    bias_filler {
      type: "constant"
    }
  }
}
layer {
  name: "relu4_c"
  type: "ReLU"
  bottom: "conv4"
  top: "conv4"
}
layer {
  name: "conv4_2"
  type: "Convolution"
  bottom: "conv4"
  top: "conv4_2"
  param {
    name: "conv4_2_w"
    lr_mult: 1
    decay_mult: 1
  }
  param {
    name: "conv4_2_b"
    lr_mult: 2
    decay_mult: 0
  }
  convolution_param {
    num_output: 256
    pad: 1
    kernel_size: 3
    stride: 1
    weight_filler {
      type: "xavier"
    }
    bias_filler {
      type: "constant"
    }
  }
}
layer {
  name: "relu4_2"
  type: "ReLU"
  bottom: "conv4_2"
  top: "conv4_2"
}
layer {
  name: "pool4"
  type: "Pooling"
  bottom: "conv4_2"
  top: "pool4"
  pooling_param {
    pool: MAX
    kernel_size: 2
    stride: 2
  }
}
layer {
  name: "conv5"
  type: "Convolution"
  bottom: "pool4"
  top: "conv5"
  param {
    name: "conv5_w"
    lr_mult: 1
    decay_mult: 1
  }
  param {
    name: "conv5_b"
    lr_mult: 2
    decay_mult: 0
  }
  convolution_param {
    num_output: 160
    pad: 1
    kernel_size: 3
    stride: 1
    weight_filler {
      type: "xavier"
    }
    bias_filler {
      type: "constant"
    }
  }
}
layer {
  name: "relu5_c"
  type: "ReLU"
  bottom: "conv5"
  top: "conv5"
}
layer {
  name: "conv5_2"
  type: "Convolution"
  bottom: "conv5"
  top: "conv5_2"
  param {
    name: "conv5_2_w"
    lr_mult: 1
    decay_mult: 1
  }
  param {
    name: "conv5_2_b"
    lr_mult: 2
    decay_mult: 0
  }
  convolution_param {
    num_output: 320
    pad: 1
    kernel_size: 3
    stride: 1
    weight_filler {
      type: "xavier"
    }
    bias_filler {
      type: "constant"
    }
  }
}
layer {
  name: "relu5_2"
  type: "ReLU"
  bottom: "conv5_2"
  top: "conv5_2"
}
layer {
  name: "pool5"
  type: "Pooling"
  bottom: "conv5_2"
  top: "pool5"
  pooling_param {
    pool: AVE
    kernel_size: 7
    stride: 1
  }
}
layer {
  name: "drop2"
  type: "Dropout"
  bottom: "pool5"
  top: "pool5"
  dropout_param {
    dropout_ratio: 0.4
  }
}
layer {
  name: "ip3"
  type: "InnerProduct"
  bottom: "pool5"
  top: "ip3"
  param {
    name: "ip3_w"
    lr_mult: 1
    decay_mult: 1
  }
  param {
    name: "ip3_b"
    lr_mult: 2
    decay_mult: 0
  }
  inner_product_param {
    num_output: 10575
    weight_filler {
      type: "xavier"
    }
    bias_filler {
      type: "constant"
    }
  }
}
layer {
  name: "loss"
  type: "SoftmaxWithLoss"
  bottom: "ip3"
  bottom: "label"
  top: "loss"
}
I0929 21:43:47.539438 20270 layer_factory.hpp:74] Creating layer data
I0929 21:43:47.539485 20270 net.cpp:90] Creating Layer data
I0929 21:43:47.539505 20270 net.cpp:368] data -> data
I0929 21:43:47.539546 20270 net.cpp:368] data -> label
I0929 21:43:47.539568 20270 net.cpp:120] Setting up data
I0929 21:43:47.539587 20270 data_transformer.cpp:22] Loading mean file from: data/face/patch/Normalized/patchNormalized_mean.binaryproto
I0929 21:43:47.545279 20270 db_lmdb.cpp:22] Opened lmdb examples/patches17/patchNormalized_train_lmdb
I0929 21:43:47.545567 20270 data_layer.cpp:52] output data size: 64,3,100,100
I0929 21:43:47.548493 20270 net.cpp:127] Top shape: 64 3 100 100 (1920000)
I0929 21:43:47.548516 20270 net.cpp:127] Top shape: 64 (64)
I0929 21:43:47.548528 20270 layer_factory.hpp:74] Creating layer conv1
I0929 21:43:47.548573 20270 net.cpp:90] Creating Layer conv1
I0929 21:43:47.548588 20270 net.cpp:410] conv1 <- data
I0929 21:43:47.548611 20270 net.cpp:368] conv1 -> conv1
I0929 21:43:47.548636 20270 net.cpp:120] Setting up conv1
I0929 21:43:47.548705 20270 net.cpp:127] Top shape: 64 32 100 100 (20480000)
I0929 21:43:47.548724 20270 layer_factory.hpp:74] Creating layer relu1
I0929 21:43:47.548739 20270 net.cpp:90] Creating Layer relu1
I0929 21:43:47.548749 20270 net.cpp:410] relu1 <- conv1
I0929 21:43:47.548760 20270 net.cpp:357] relu1 -> conv1 (in-place)
I0929 21:43:47.548774 20270 net.cpp:120] Setting up relu1
I0929 21:43:47.548786 20270 net.cpp:127] Top shape: 64 32 100 100 (20480000)
I0929 21:43:47.548797 20270 layer_factory.hpp:74] Creating layer conv1_1
I0929 21:43:47.548810 20270 net.cpp:90] Creating Layer conv1_1
I0929 21:43:47.548820 20270 net.cpp:410] conv1_1 <- conv1
I0929 21:43:47.548830 20270 net.cpp:368] conv1_1 -> conv1_1
I0929 21:43:47.548846 20270 net.cpp:120] Setting up conv1_1
I0929 21:43:47.549002 20270 net.cpp:127] Top shape: 64 64 100 100 (40960000)
I0929 21:43:47.549020 20270 layer_factory.hpp:74] Creating layer relu1_1
I0929 21:43:47.549032 20270 net.cpp:90] Creating Layer relu1_1
I0929 21:43:47.549042 20270 net.cpp:410] relu1_1 <- conv1_1
I0929 21:43:47.549056 20270 net.cpp:357] relu1_1 -> conv1_1 (in-place)
I0929 21:43:47.549067 20270 net.cpp:120] Setting up relu1_1
I0929 21:43:47.549078 20270 net.cpp:127] Top shape: 64 64 100 100 (40960000)
I0929 21:43:47.549088 20270 layer_factory.hpp:74] Creating layer pool1
I0929 21:43:47.549099 20270 net.cpp:90] Creating Layer pool1
I0929 21:43:47.549109 20270 net.cpp:410] pool1 <- conv1_1
I0929 21:43:47.549119 20270 net.cpp:368] pool1 -> pool1
I0929 21:43:47.549136 20270 net.cpp:120] Setting up pool1
I0929 21:43:47.549163 20270 net.cpp:127] Top shape: 64 64 50 50 (10240000)
I0929 21:43:47.549180 20270 layer_factory.hpp:74] Creating layer conv2
I0929 21:43:47.549192 20270 net.cpp:90] Creating Layer conv2
I0929 21:43:47.549202 20270 net.cpp:410] conv2 <- pool1
I0929 21:43:47.549218 20270 net.cpp:368] conv2 -> conv2
I0929 21:43:47.549232 20270 net.cpp:120] Setting up conv2
I0929 21:43:47.550066 20270 net.cpp:127] Top shape: 64 64 50 50 (10240000)
I0929 21:43:47.550093 20270 layer_factory.hpp:74] Creating layer relu2
I0929 21:43:47.550107 20270 net.cpp:90] Creating Layer relu2
I0929 21:43:47.550118 20270 net.cpp:410] relu2 <- conv2
I0929 21:43:47.550132 20270 net.cpp:357] relu2 -> conv2 (in-place)
I0929 21:43:47.550145 20270 net.cpp:120] Setting up relu2
I0929 21:43:47.550156 20270 net.cpp:127] Top shape: 64 64 50 50 (10240000)
I0929 21:43:47.550166 20270 layer_factory.hpp:74] Creating layer conv2_2
I0929 21:43:47.550181 20270 net.cpp:90] Creating Layer conv2_2
I0929 21:43:47.550191 20270 net.cpp:410] conv2_2 <- conv2
I0929 21:43:47.550204 20270 net.cpp:368] conv2_2 -> conv2_2
I0929 21:43:47.550216 20270 net.cpp:120] Setting up conv2_2
I0929 21:43:47.550832 20270 net.cpp:127] Top shape: 64 128 50 50 (20480000)
I0929 21:43:47.550853 20270 layer_factory.hpp:74] Creating layer relu2_2
I0929 21:43:47.550864 20270 net.cpp:90] Creating Layer relu2_2
I0929 21:43:47.550875 20270 net.cpp:410] relu2_2 <- conv2_2
I0929 21:43:47.550886 20270 net.cpp:357] relu2_2 -> conv2_2 (in-place)
I0929 21:43:47.550897 20270 net.cpp:120] Setting up relu2_2
I0929 21:43:47.550910 20270 net.cpp:127] Top shape: 64 128 50 50 (20480000)
I0929 21:43:47.550920 20270 layer_factory.hpp:74] Creating layer pool2
I0929 21:43:47.550936 20270 net.cpp:90] Creating Layer pool2
I0929 21:43:47.550947 20270 net.cpp:410] pool2 <- conv2_2
I0929 21:43:47.550959 20270 net.cpp:368] pool2 -> pool2
I0929 21:43:47.550972 20270 net.cpp:120] Setting up pool2
I0929 21:43:47.550987 20270 net.cpp:127] Top shape: 64 128 25 25 (5120000)
I0929 21:43:47.550998 20270 layer_factory.hpp:74] Creating layer conv3
I0929 21:43:47.551017 20270 net.cpp:90] Creating Layer conv3
I0929 21:43:47.551028 20270 net.cpp:410] conv3 <- pool2
I0929 21:43:47.551041 20270 net.cpp:368] conv3 -> conv3
I0929 21:43:47.551054 20270 net.cpp:120] Setting up conv3
I0929 21:43:47.552192 20270 net.cpp:127] Top shape: 64 96 25 25 (3840000)
I0929 21:43:47.552212 20270 layer_factory.hpp:74] Creating layer relu3
I0929 21:43:47.552227 20270 net.cpp:90] Creating Layer relu3
I0929 21:43:47.552238 20270 net.cpp:410] relu3 <- conv3
I0929 21:43:47.552249 20270 net.cpp:357] relu3 -> conv3 (in-place)
I0929 21:43:47.552260 20270 net.cpp:120] Setting up relu3
I0929 21:43:47.552271 20270 net.cpp:127] Top shape: 64 96 25 25 (3840000)
I0929 21:43:47.552281 20270 layer_factory.hpp:74] Creating layer conv3_2
I0929 21:43:47.552294 20270 net.cpp:90] Creating Layer conv3_2
I0929 21:43:47.552304 20270 net.cpp:410] conv3_2 <- conv3
I0929 21:43:47.552316 20270 net.cpp:368] conv3_2 -> conv3_2
I0929 21:43:47.552330 20270 net.cpp:120] Setting up conv3_2
I0929 21:43:47.553742 20270 net.cpp:127] Top shape: 64 192 25 25 (7680000)
I0929 21:43:47.553762 20270 layer_factory.hpp:74] Creating layer relu3_2
I0929 21:43:47.553777 20270 net.cpp:90] Creating Layer relu3_2
I0929 21:43:47.553789 20270 net.cpp:410] relu3_2 <- conv3_2
I0929 21:43:47.553802 20270 net.cpp:357] relu3_2 -> conv3_2 (in-place)
I0929 21:43:47.553814 20270 net.cpp:120] Setting up relu3_2
I0929 21:43:47.553827 20270 net.cpp:127] Top shape: 64 192 25 25 (7680000)
I0929 21:43:47.553835 20270 layer_factory.hpp:74] Creating layer pool3
I0929 21:43:47.553848 20270 net.cpp:90] Creating Layer pool3
I0929 21:43:47.553858 20270 net.cpp:410] pool3 <- conv3_2
I0929 21:43:47.553874 20270 net.cpp:368] pool3 -> pool3
I0929 21:43:47.553889 20270 net.cpp:120] Setting up pool3
I0929 21:43:47.553901 20270 net.cpp:127] Top shape: 64 192 13 13 (2076672)
I0929 21:43:47.553912 20270 layer_factory.hpp:74] Creating layer conv4
I0929 21:43:47.553930 20270 net.cpp:90] Creating Layer conv4
I0929 21:43:47.553948 20270 net.cpp:410] conv4 <- pool3
I0929 21:43:47.553961 20270 net.cpp:368] conv4 -> conv4
I0929 21:43:47.553975 20270 net.cpp:120] Setting up conv4
I0929 21:43:47.557087 20270 net.cpp:127] Top shape: 64 128 13 13 (1384448)
I0929 21:43:47.557107 20270 layer_factory.hpp:74] Creating layer relu4_c
I0929 21:43:47.557121 20270 net.cpp:90] Creating Layer relu4_c
I0929 21:43:47.557132 20270 net.cpp:410] relu4_c <- conv4
I0929 21:43:47.557143 20270 net.cpp:357] relu4_c -> conv4 (in-place)
I0929 21:43:47.557154 20270 net.cpp:120] Setting up relu4_c
I0929 21:43:47.557168 20270 net.cpp:127] Top shape: 64 128 13 13 (1384448)
I0929 21:43:47.557176 20270 layer_factory.hpp:74] Creating layer conv4_2
I0929 21:43:47.557190 20270 net.cpp:90] Creating Layer conv4_2
I0929 21:43:47.557200 20270 net.cpp:410] conv4_2 <- conv4
I0929 21:43:47.557211 20270 net.cpp:368] conv4_2 -> conv4_2
I0929 21:43:47.557224 20270 net.cpp:120] Setting up conv4_2
I0929 21:43:47.559696 20270 net.cpp:127] Top shape: 64 256 13 13 (2768896)
I0929 21:43:47.559716 20270 layer_factory.hpp:74] Creating layer relu4_2
I0929 21:43:47.559728 20270 net.cpp:90] Creating Layer relu4_2
I0929 21:43:47.559738 20270 net.cpp:410] relu4_2 <- conv4_2
I0929 21:43:47.559749 20270 net.cpp:357] relu4_2 -> conv4_2 (in-place)
I0929 21:43:47.559761 20270 net.cpp:120] Setting up relu4_2
I0929 21:43:47.559772 20270 net.cpp:127] Top shape: 64 256 13 13 (2768896)
I0929 21:43:47.559780 20270 layer_factory.hpp:74] Creating layer pool4
I0929 21:43:47.559792 20270 net.cpp:90] Creating Layer pool4
I0929 21:43:47.559800 20270 net.cpp:410] pool4 <- conv4_2
I0929 21:43:47.559813 20270 net.cpp:368] pool4 -> pool4
I0929 21:43:47.559825 20270 net.cpp:120] Setting up pool4
I0929 21:43:47.559839 20270 net.cpp:127] Top shape: 64 256 7 7 (802816)
I0929 21:43:47.559849 20270 layer_factory.hpp:74] Creating layer conv5
I0929 21:43:47.559861 20270 net.cpp:90] Creating Layer conv5
I0929 21:43:47.559875 20270 net.cpp:410] conv5 <- pool4
I0929 21:43:47.559885 20270 net.cpp:368] conv5 -> conv5
I0929 21:43:47.559897 20270 net.cpp:120] Setting up conv5
I0929 21:43:47.562875 20270 net.cpp:127] Top shape: 64 160 7 7 (501760)
I0929 21:43:47.562897 20270 layer_factory.hpp:74] Creating layer relu5_c
I0929 21:43:47.562912 20270 net.cpp:90] Creating Layer relu5_c
I0929 21:43:47.562937 20270 net.cpp:410] relu5_c <- conv5
I0929 21:43:47.562949 20270 net.cpp:357] relu5_c -> conv5 (in-place)
I0929 21:43:47.562961 20270 net.cpp:120] Setting up relu5_c
I0929 21:43:47.562973 20270 net.cpp:127] Top shape: 64 160 7 7 (501760)
I0929 21:43:47.562983 20270 layer_factory.hpp:74] Creating layer conv5_2
I0929 21:43:47.562994 20270 net.cpp:90] Creating Layer conv5_2
I0929 21:43:47.563004 20270 net.cpp:410] conv5_2 <- conv5
I0929 21:43:47.563019 20270 net.cpp:368] conv5_2 -> conv5_2
I0929 21:43:47.563031 20270 net.cpp:120] Setting up conv5_2
I0929 21:43:47.566494 20270 net.cpp:127] Top shape: 64 320 7 7 (1003520)
I0929 21:43:47.566524 20270 layer_factory.hpp:74] Creating layer relu5_2
I0929 21:43:47.566537 20270 net.cpp:90] Creating Layer relu5_2
I0929 21:43:47.566547 20270 net.cpp:410] relu5_2 <- conv5_2
I0929 21:43:47.566560 20270 net.cpp:357] relu5_2 -> conv5_2 (in-place)
I0929 21:43:47.566576 20270 net.cpp:120] Setting up relu5_2
I0929 21:43:47.566587 20270 net.cpp:127] Top shape: 64 320 7 7 (1003520)
I0929 21:43:47.566596 20270 layer_factory.hpp:74] Creating layer pool5
I0929 21:43:47.566607 20270 net.cpp:90] Creating Layer pool5
I0929 21:43:47.566617 20270 net.cpp:410] pool5 <- conv5_2
I0929 21:43:47.566628 20270 net.cpp:368] pool5 -> pool5
I0929 21:43:47.566644 20270 net.cpp:120] Setting up pool5
I0929 21:43:47.566658 20270 net.cpp:127] Top shape: 64 320 1 1 (20480)
I0929 21:43:47.566668 20270 layer_factory.hpp:74] Creating layer drop2
I0929 21:43:47.566684 20270 net.cpp:90] Creating Layer drop2
I0929 21:43:47.566694 20270 net.cpp:410] drop2 <- pool5
I0929 21:43:47.566704 20270 net.cpp:357] drop2 -> pool5 (in-place)
I0929 21:43:47.566718 20270 net.cpp:120] Setting up drop2
I0929 21:43:47.566736 20270 net.cpp:127] Top shape: 64 320 1 1 (20480)
I0929 21:43:47.566746 20270 layer_factory.hpp:74] Creating layer ip3
I0929 21:43:47.566763 20270 net.cpp:90] Creating Layer ip3
I0929 21:43:47.566781 20270 net.cpp:410] ip3 <- pool5
I0929 21:43:47.566793 20270 net.cpp:368] ip3 -> ip3
I0929 21:43:47.566808 20270 net.cpp:120] Setting up ip3
I0929 21:43:47.589372 20270 net.cpp:127] Top shape: 64 10575 (676800)
I0929 21:43:47.589419 20270 layer_factory.hpp:74] Creating layer loss
I0929 21:43:47.589442 20270 net.cpp:90] Creating Layer loss
I0929 21:43:47.589452 20270 net.cpp:410] loss <- ip3
I0929 21:43:47.589464 20270 net.cpp:410] loss <- label
I0929 21:43:47.589478 20270 net.cpp:368] loss -> loss
I0929 21:43:47.589498 20270 net.cpp:120] Setting up loss
I0929 21:43:47.589515 20270 layer_factory.hpp:74] Creating layer loss
…
I0929 21:43:47.592911 20270 net.cpp:287] The NetState phase (1) differed from the phase (0) specified by a rule in layer data
I0929 21:43:47.593103 20270 net.cpp:42] Initializing net from parameters: 
name: "LeNet"
state {
  phase: TEST
}
layer {
  name: "data"
  type: "Data"
  top: "data"
  top: "label"
  include {
    phase: TEST
  }
  transform_param {
    mean_file: "data/face/patch/Normalized/patchNormalized_mean.binaryproto"
  }
  data_param {
    source: "examples/patches17/patchNormalized_val_lmdb"
    batch_size: 64
    backend: LMDB
  }
}
layer {
  name: "conv1"
  type: "Convolution"
  bottom: "data"
  top: "conv1"
  param {
    name: "conv1_w"
    lr_mult: 1
    decay_mult: 1
  }
  param {
    name: "conv1_b"
    lr_mult: 2
    decay_mult: 0
  }
  convolution_param {
    num_output: 32
    pad: 1
    kernel_size: 3
    stride: 1
    weight_filler {
      type: "xavier"
    }
    bias_filler {
      type: "constant"
    }
  }
}
layer {
  name: "relu1"
  type: "ReLU"
  bottom: "conv1"
  top: "conv1"
}
layer {
  name: "conv1_1"
  type: "Convolution"
  bottom: "conv1"
  top: "conv1_1"
  param {
    name: "conv1_1_w"
    lr_mult: 1
    decay_mult: 1
  }
  param {
    name: "conv1_1_b"
    lr_mult: 2
    decay_mult: 0
  }
  convolution_param {
    num_output: 64
    pad: 1
    kernel_size: 3
    stride: 1
    weight_filler {
      type: "xavier"
    }
    bias_filler {
      type: "constant"
    }
  }
}
layer {
  name: "relu1_1"
  type: "ReLU"
  bottom: "conv1_1"
  top: "conv1_1"
}
layer {
  name: "pool1"
  type: "Pooling"
  bottom: "conv1_1"
  top: "pool1"
  pooling_param {
    pool: MAX
    kernel_size: 2
    stride: 2
  }
}
layer {
  name: "conv2"
  type: "Convolution"
  bottom: "pool1"
  top: "conv2"
  param {
    name: "conv2_w"
    lr_mult: 1
    decay_mult: 1
  }
  param {
    name: "conv2_b"
    lr_mult: 2
    decay_mult: 0
  }
  convolution_param {
    num_output: 64
    pad: 1
    kernel_size: 3
    stride: 1
    weight_filler {
      type: "xavier"
    }
    bias_filler {
      type: "constant"
    }
  }
}
layer {
  name: "relu2"
  type: "ReLU"
  bottom: "conv2"
  top: "conv2"
}
layer {
  name: "conv2_2"
  type: "Convolution"
  bottom: "conv2"
  top: "conv2_2"
  param {
    name: "conv2_2_w"
    lr_mult: 1
    decay_mult: 1
  }
  param {
    name: "conv2_2_b"
    lr_mult: 2
    decay_mult: 0
  }
  convolution_param {
    num_output: 128
    pad: 1
    kernel_size: 3
    stride: 1
    weight_filler {
      type: "xavier"
    }
    bias_filler {
      type: "constant"
    }
  }
}
layer {
  name: "relu2_2"
  type: "ReLU"
  bottom: "conv2_2"
  top: "conv2_2"
}
layer {
  name: "pool2"
  type: "Pooling"
  bottom: "conv2_2"
  top: "pool2"
  pooling_param {
    pool: MAX
    kernel_size: 2
    stride: 2
  }
}
layer {
  name: "conv3"
  type: "Convolution"
  bottom: "pool2"
  top: "conv3"
  param {
    name: "conv3_w"
    lr_mult: 1
    decay_mult: 1
  }
  param {
    name: "conv3_b"
    lr_mult: 2
    decay_mult: 0
  }
  convolution_param {
    num_output: 96
    pad: 1
    kernel_size: 3
    stride: 1
    weight_filler {
      type: "xavier"
    }
    bias_filler {
      type: "constant"
    }
  }
}
layer {
  name: "relu3"
  type: "ReLU"
  bottom: "conv3"
  top: "conv3"
}
layer {
  name: "conv3_2"
  type: "Convolution"
  bottom: "conv3"
  top: "conv3_2"
  param {
    name: "conv3_2_w"
    lr_mult: 1
    decay_mult: 1
  }
  param {
    name: "conv3_@_b"
    lr_mult: 2
    decay_mult: 0
  }
  convolution_param {
    num_output: 192
    pad: 1
    kernel_size: 3
    stride: 1
    weight_filler {
      type: "xavier"
    }
    bias_filler {
      type: "constant"
    }
  }
}
layer {
  name: "relu3_2"
  type: "ReLU"
  bottom: "conv3_2"
  top: "conv3_2"
}
layer {
  name: "pool3"
  type: "Pooling"
  bottom: "conv3_2"
  top: "pool3"
  pooling_param {
    pool: MAX
    kernel_size: 2
    stride: 2
  }
}
layer {
  name: "conv4"
  type: "Convolution"
  bottom: "pool3"
  top: "conv4"
  param {
    name: "conv4_w"
    lr_mult: 1
    decay_mult: 1
  }
  param {
    name: "conv4_b"
    lr_mult: 2
    decay_mult: 0
  }
  convolution_param {
    num_output: 128
    pad: 1
    kernel_size: 3
    stride: 1
    weight_filler {
      type: "xavier"
    }
    bias_filler {
      type: "constant"
    }
  }
}
layer {
  name: "relu4_c"
  type: "ReLU"
  bottom: "conv4"
  top: "conv4"
}
layer {
  name: "conv4_2"
  type: "Convolution"
  bottom: "conv4"
  top: "conv4_2"
  param {
    name: "conv4_2_w"
    lr_mult: 1
    decay_mult: 1
  }
  param {
    name: "conv4_2_b"
    lr_mult: 2
    decay_mult: 0
  }
  convolution_param {
    num_output: 256
    pad: 1
    kernel_size: 3
    stride: 1
    weight_filler {
      type: "xavier"
    }
    bias_filler {
      type: "constant"
    }
  }
}
layer {
  name: "relu4_2"
  type: "ReLU"
  bottom: "conv4_2"
  top: "conv4_2"
}
layer {
  name: "pool4"
  type: "Pooling"
  bottom: "conv4_2"
  top: "pool4"
  pooling_param {
    pool: MAX
    kernel_size: 2
    stride: 2
  }
}
layer {
  name: "conv5"
  type: "Convolution"
  bottom: "pool4"
  top: "conv5"
  param {
    name: "conv5_w"
    lr_mult: 1
    decay_mult: 1
  }
  param {
    name: "conv5_b"
    lr_mult: 2
    decay_mult: 0
  }
  convolution_param {
    num_output: 160
    pad: 1
    kernel_size: 3
    stride: 1
    weight_filler {
      type: "xavier"
    }
    bias_filler {
      type: "constant"
    }
  }
}
layer {
  name: "relu5_c"
  type: "ReLU"
  bottom: "conv5"
  top: "conv5"
}
layer {
  name: "conv5_2"
  type: "Convolution"
  bottom: "conv5"
  top: "conv5_2"
  param {
    name: "conv5_2_w"
    lr_mult: 1
    decay_mult: 1
  }
  param {
    name: "conv5_2_b"
    lr_mult: 2
    decay_mult: 0
  }
  convolution_param {
    num_output: 320
    pad: 1
    kernel_size: 3
    stride: 1
    weight_filler {
      type: "xavier"
    }
    bias_filler {
      type: "constant"
    }
  }
}
layer {
  name: "relu5_2"
  type: "ReLU"
  bottom: "conv5_2"
  top: "conv5_2"
}
layer {
  name: "pool5"
  type: "Pooling"
  bottom: "conv5_2"
  top: "pool5"
  pooling_param {
    pool: AVE
    kernel_size: 7
    stride: 1
  }
}
layer {
  name: "drop2"
  type: "Dropout"
  bottom: "pool5"
  top: "pool5"
  dropout_param {
    dropout_ratio: 0.4
  }
}
layer {
  name: "ip3"
  type: "InnerProduct"
  bottom: "pool5"
  top: "ip3"
  param {
    name: "ip3_w"
    lr_mult: 1
    decay_mult: 1
  }
  param {
    name: "ip3_b"
    lr_mult: 2
    decay_mult: 0
  }
  inner_product_param {
    num_output: 10575
    weight_filler {
      type: "xavier"
    }
    bias_filler {
      type: "constant"
    }
  }
}
layer {
  name: "accuracy"
  type: "Accuracy"
  bottom: "ip3"
  bottom: "label"
  top: "accuracy"
  include {
    phase: TEST
  }
}
layer {
  name: "loss"
  type: "SoftmaxWithLoss"
  bottom: "ip3"
  bottom: "label"
  top: "loss"
}
I0929 21:43:47.594672 20270 layer_factory.hpp:74] Creating layer data
I0929 21:43:47.594707 20270 net.cpp:90] Creating Layer data
I0929 21:43:47.594732 20270 net.cpp:368] data -> data
I0929 21:43:47.594748 20270 net.cpp:368] data -> label
I0929 21:43:47.594763 20270 net.cpp:120] Setting up data
I0929 21:43:47.594774 20270 data_transformer.cpp:22] Loading mean file from: data/face/patch/Normalized/patchNormalized_mean.binaryproto
I0929 21:43:47.598023 20270 db_lmdb.cpp:22] Opened lmdb examples/patches17/patchNormalized_val_lmdb
I0929 21:43:47.598260 20270 data_layer.cpp:52] output data size: 64,3,100,100
I0929 21:43:47.600453 20270 net.cpp:127] Top shape: 64 3 100 100 (1920000)
I0929 21:43:47.600486 20270 net.cpp:127] Top shape: 64 (64)
I0929 21:43:47.600499 20270 layer_factory.hpp:74] Creating layer label_data_1_split
I0929 21:43:47.600518 20270 net.cpp:90] Creating Layer label_data_1_split
I0929 21:43:47.600529 20270 net.cpp:410] label_data_1_split <- label
I0929 21:43:47.600541 20270 net.cpp:368] label_data_1_split -> label_data_1_split_0
I0929 21:43:47.600556 20270 net.cpp:368] label_data_1_split -> label_data_1_split_1
I0929 21:43:47.600569 20270 net.cpp:120] Setting up label_data_1_split
I0929 21:43:47.600584 20270 net.cpp:127] Top shape: 64 (64)
I0929 21:43:47.600594 20270 net.cpp:127] Top shape: 64 (64)
I0929 21:43:47.600605 20270 layer_factory.hpp:74] Creating layer conv1
I0929 21:43:47.600627 20270 net.cpp:90] Creating Layer conv1
I0929 21:43:47.600637 20270 net.cpp:410] conv1 <- data
I0929 21:43:47.600649 20270 net.cpp:368] conv1 -> conv1
I0929 21:43:47.600663 20270 net.cpp:120] Setting up conv1
I0929 21:43:47.600700 20270 net.cpp:127] Top shape: 64 32 100 100 (20480000)
I0929 21:43:47.600716 20270 layer_factory.hpp:74] Creating layer relu1
I0929 21:43:47.600729 20270 net.cpp:90] Creating Layer relu1
I0929 21:43:47.600739 20270 net.cpp:410] relu1 <- conv1
I0929 21:43:47.600750 20270 net.cpp:357] relu1 -> conv1 (in-place)
I0929 21:43:47.600761 20270 net.cpp:120] Setting up relu1
I0929 21:43:47.600772 20270 net.cpp:127] Top shape: 64 32 100 100 (20480000)
I0929 21:43:47.600782 20270 layer_factory.hpp:74] Creating layer conv1_1
I0929 21:43:47.600795 20270 net.cpp:90] Creating Layer conv1_1
I0929 21:43:47.600805 20270 net.cpp:410] conv1_1 <- conv1
I0929 21:43:47.600816 20270 net.cpp:368] conv1_1 -> conv1_1
I0929 21:43:47.600829 20270 net.cpp:120] Setting up conv1_1
I0929 21:43:47.600988 20270 net.cpp:127] Top shape: 64 64 100 100 (40960000)
I0929 21:43:47.601006 20270 layer_factory.hpp:74] Creating layer relu1_1
I0929 21:43:47.601017 20270 net.cpp:90] Creating Layer relu1_1
I0929 21:43:47.601027 20270 net.cpp:410] relu1_1 <- conv1_1
I0929 21:43:47.601042 20270 net.cpp:357] relu1_1 -> conv1_1 (in-place)
I0929 21:43:47.601053 20270 net.cpp:120] Setting up relu1_1
I0929 21:43:47.601064 20270 net.cpp:127] Top shape: 64 64 100 100 (40960000)
I0929 21:43:47.601074 20270 layer_factory.hpp:74] Creating layer pool1
I0929 21:43:47.601085 20270 net.cpp:90] Creating Layer pool1
I0929 21:43:47.601095 20270 net.cpp:410] pool1 <- conv1_1
I0929 21:43:47.601106 20270 net.cpp:368] pool1 -> pool1
I0929 21:43:47.601119 20270 net.cpp:120] Setting up pool1
I0929 21:43:47.601132 20270 net.cpp:127] Top shape: 64 64 50 50 (10240000)
I0929 21:43:47.601142 20270 layer_factory.hpp:74] Creating layer conv2
I0929 21:43:47.601157 20270 net.cpp:90] Creating Layer conv2
I0929 21:43:47.601168 20270 net.cpp:410] conv2 <- pool1
I0929 21:43:47.601181 20270 net.cpp:368] conv2 -> conv2
I0929 21:43:47.601194 20270 net.cpp:120] Setting up conv2
I0929 21:43:47.601532 20270 net.cpp:127] Top shape: 64 64 50 50 (10240000)
I0929 21:43:47.601562 20270 layer_factory.hpp:74] Creating layer relu2
I0929 21:43:47.601580 20270 net.cpp:90] Creating Layer relu2
I0929 21:43:47.601590 20270 net.cpp:410] relu2 <- conv2
I0929 21:43:47.601601 20270 net.cpp:357] relu2 -> conv2 (in-place)
I0929 21:43:47.601614 20270 net.cpp:120] Setting up relu2
I0929 21:43:47.601637 20270 net.cpp:127] Top shape: 64 64 50 50 (10240000)
I0929 21:43:47.601647 20270 layer_factory.hpp:74] Creating layer conv2_2
I0929 21:43:47.601658 20270 net.cpp:90] Creating Layer conv2_2
I0929 21:43:47.601668 20270 net.cpp:410] conv2_2 <- conv2
I0929 21:43:47.601701 20270 net.cpp:368] conv2_2 -> conv2_2
I0929 21:43:47.601716 20270 net.cpp:120] Setting up conv2_2
I0929 21:43:47.602294 20270 net.cpp:127] Top shape: 64 128 50 50 (20480000)
I0929 21:43:47.602324 20270 layer_factory.hpp:74] Creating layer relu2_2
I0929 21:43:47.602336 20270 net.cpp:90] Creating Layer relu2_2
I0929 21:43:47.602346 20270 net.cpp:410] relu2_2 <- conv2_2
I0929 21:43:47.602358 20270 net.cpp:357] relu2_2 -> conv2_2 (in-place)
I0929 21:43:47.602372 20270 net.cpp:120] Setting up relu2_2
I0929 21:43:47.602383 20270 net.cpp:127] Top shape: 64 128 50 50 (20480000)
I0929 21:43:47.602394 20270 layer_factory.hpp:74] Creating layer pool2
I0929 21:43:47.602406 20270 net.cpp:90] Creating Layer pool2
I0929 21:43:47.602414 20270 net.cpp:410] pool2 <- conv2_2
I0929 21:43:47.602426 20270 net.cpp:368] pool2 -> pool2
I0929 21:43:47.602437 20270 net.cpp:120] Setting up pool2
I0929 21:43:47.602449 20270 net.cpp:127] Top shape: 64 128 25 25 (5120000)
I0929 21:43:47.602466 20270 layer_factory.hpp:74] Creating layer conv3
I0929 21:43:47.602481 20270 net.cpp:90] Creating Layer conv3
I0929 21:43:47.602491 20270 net.cpp:410] conv3 <- pool2
I0929 21:43:47.602505 20270 net.cpp:368] conv3 -> conv3
I0929 21:43:47.602517 20270 net.cpp:120] Setting up conv3
I0929 21:43:47.603375 20270 net.cpp:127] Top shape: 64 96 25 25 (3840000)
I0929 21:43:47.603395 20270 layer_factory.hpp:74] Creating layer relu3
I0929 21:43:47.603410 20270 net.cpp:90] Creating Layer relu3
I0929 21:43:47.603421 20270 net.cpp:410] relu3 <- conv3
I0929 21:43:47.603431 20270 net.cpp:357] relu3 -> conv3 (in-place)
I0929 21:43:47.603442 20270 net.cpp:120] Setting up relu3
I0929 21:43:47.603453 20270 net.cpp:127] Top shape: 64 96 25 25 (3840000)
I0929 21:43:47.603462 20270 layer_factory.hpp:74] Creating layer conv3_2
I0929 21:43:47.603477 20270 net.cpp:90] Creating Layer conv3_2
I0929 21:43:47.603485 20270 net.cpp:410] conv3_2 <- conv3
I0929 21:43:47.603497 20270 net.cpp:368] conv3_2 -> conv3_2
I0929 21:43:47.603518 20270 net.cpp:120] Setting up conv3_2
I0929 21:43:47.604799 20270 net.cpp:127] Top shape: 64 192 25 25 (7680000)
I0929 21:43:47.604816 20270 layer_factory.hpp:74] Creating layer relu3_2
I0929 21:43:47.604833 20270 net.cpp:90] Creating Layer relu3_2
I0929 21:43:47.604845 20270 net.cpp:410] relu3_2 <- conv3_2
I0929 21:43:47.604854 20270 net.cpp:357] relu3_2 -> conv3_2 (in-place)
I0929 21:43:47.604867 20270 net.cpp:120] Setting up relu3_2
I0929 21:43:47.604878 20270 net.cpp:127] Top shape: 64 192 25 25 (7680000)
I0929 21:43:47.604888 20270 layer_factory.hpp:74] Creating layer pool3
I0929 21:43:47.604900 20270 net.cpp:90] Creating Layer pool3
I0929 21:43:47.604910 20270 net.cpp:410] pool3 <- conv3_2
I0929 21:43:47.604924 20270 net.cpp:368] pool3 -> pool3
I0929 21:43:47.604936 20270 net.cpp:120] Setting up pool3
I0929 21:43:47.604949 20270 net.cpp:127] Top shape: 64 192 13 13 (2076672)
I0929 21:43:47.604959 20270 layer_factory.hpp:74] Creating layer conv4
I0929 21:43:47.604974 20270 net.cpp:90] Creating Layer conv4
I0929 21:43:47.604984 20270 net.cpp:410] conv4 <- pool3
I0929 21:43:47.604995 20270 net.cpp:368] conv4 -> conv4
I0929 21:43:47.605007 20270 net.cpp:120] Setting up conv4
I0929 21:43:47.606706 20270 net.cpp:127] Top shape: 64 128 13 13 (1384448)
I0929 21:43:47.606725 20270 layer_factory.hpp:74] Creating layer relu4_c
I0929 21:43:47.606739 20270 net.cpp:90] Creating Layer relu4_c
I0929 21:43:47.606751 20270 net.cpp:410] relu4_c <- conv4
I0929 21:43:47.606762 20270 net.cpp:357] relu4_c -> conv4 (in-place)
I0929 21:43:47.606775 20270 net.cpp:120] Setting up relu4_c
I0929 21:43:47.606784 20270 net.cpp:127] Top shape: 64 128 13 13 (1384448)
I0929 21:43:47.606794 20270 layer_factory.hpp:74] Creating layer conv4_2
I0929 21:43:47.606806 20270 net.cpp:90] Creating Layer conv4_2
I0929 21:43:47.606816 20270 net.cpp:410] conv4_2 <- conv4
I0929 21:43:47.606828 20270 net.cpp:368] conv4_2 -> conv4_2
I0929 21:43:47.606840 20270 net.cpp:120] Setting up conv4_2
I0929 21:43:47.609120 20270 net.cpp:127] Top shape: 64 256 13 13 (2768896)
I0929 21:43:47.609151 20270 layer_factory.hpp:74] Creating layer relu4_2
I0929 21:43:47.609166 20270 net.cpp:90] Creating Layer relu4_2
I0929 21:43:47.609176 20270 net.cpp:410] relu4_2 <- conv4_2
I0929 21:43:47.609187 20270 net.cpp:357] relu4_2 -> conv4_2 (in-place)
I0929 21:43:47.609200 20270 net.cpp:120] Setting up relu4_2
I0929 21:43:47.609210 20270 net.cpp:127] Top shape: 64 256 13 13 (2768896)
I0929 21:43:47.609218 20270 layer_factory.hpp:74] Creating layer pool4
I0929 21:43:47.609230 20270 net.cpp:90] Creating Layer pool4
I0929 21:43:47.609238 20270 net.cpp:410] pool4 <- conv4_2
I0929 21:43:47.609252 20270 net.cpp:368] pool4 -> pool4
I0929 21:43:47.609264 20270 net.cpp:120] Setting up pool4
I0929 21:43:47.609277 20270 net.cpp:127] Top shape: 64 256 7 7 (802816)
I0929 21:43:47.609287 20270 layer_factory.hpp:74] Creating layer conv5
I0929 21:43:47.609298 20270 net.cpp:90] Creating Layer conv5
I0929 21:43:47.609308 20270 net.cpp:410] conv5 <- pool4
I0929 21:43:47.609323 20270 net.cpp:368] conv5 -> conv5
I0929 21:43:47.609335 20270 net.cpp:120] Setting up conv5
I0929 21:43:47.612180 20270 net.cpp:127] Top shape: 64 160 7 7 (501760)
I0929 21:43:47.612201 20270 layer_factory.hpp:74] Creating layer relu5_c
I0929 21:43:47.612216 20270 net.cpp:90] Creating Layer relu5_c
I0929 21:43:47.612226 20270 net.cpp:410] relu5_c <- conv5
I0929 21:43:47.612237 20270 net.cpp:357] relu5_c -> conv5 (in-place)
I0929 21:43:47.612251 20270 net.cpp:120] Setting up relu5_c
I0929 21:43:47.612262 20270 net.cpp:127] Top shape: 64 160 7 7 (501760)
I0929 21:43:47.612270 20270 layer_factory.hpp:74] Creating layer conv5_2
I0929 21:43:47.612282 20270 net.cpp:90] Creating Layer conv5_2
I0929 21:43:47.612293 20270 net.cpp:410] conv5_2 <- conv5
I0929 21:43:47.612305 20270 net.cpp:368] conv5_2 -> conv5_2
I0929 21:43:47.612318 20270 net.cpp:120] Setting up conv5_2
I0929 21:43:47.615828 20270 net.cpp:127] Top shape: 64 320 7 7 (1003520)
I0929 21:43:47.615847 20270 layer_factory.hpp:74] Creating layer relu5_2
I0929 21:43:47.615861 20270 net.cpp:90] Creating Layer relu5_2
I0929 21:43:47.615871 20270 net.cpp:410] relu5_2 <- conv5_2
I0929 21:43:47.615882 20270 net.cpp:357] relu5_2 -> conv5_2 (in-place)
I0929 21:43:47.615893 20270 net.cpp:120] Setting up relu5_2
I0929 21:43:47.615905 20270 net.cpp:127] Top shape: 64 320 7 7 (1003520)
I0929 21:43:47.615913 20270 layer_factory.hpp:74] Creating layer pool5
I0929 21:43:47.615924 20270 net.cpp:90] Creating Layer pool5
I0929 21:43:47.615933 20270 net.cpp:410] pool5 <- conv5_2
I0929 21:43:47.615944 20270 net.cpp:368] pool5 -> pool5
I0929 21:43:47.615957 20270 net.cpp:120] Setting up pool5
I0929 21:43:47.615968 20270 net.cpp:127] Top shape: 64 320 1 1 (20480)
I0929 21:43:47.615979 20270 layer_factory.hpp:74] Creating layer drop2
I0929 21:43:47.615993 20270 net.cpp:90] Creating Layer drop2
I0929 21:43:47.616003 20270 net.cpp:410] drop2 <- pool5
I0929 21:43:47.616014 20270 net.cpp:357] drop2 -> pool5 (in-place)
I0929 21:43:47.616025 20270 net.cpp:120] Setting up drop2
I0929 21:43:47.616040 20270 net.cpp:127] Top shape: 64 320 1 1 (20480)
I0929 21:43:47.616050 20270 layer_factory.hpp:74] Creating layer ip3
I0929 21:43:47.616062 20270 net.cpp:90] Creating Layer ip3
I0929 21:43:47.616072 20270 net.cpp:410] ip3 <- pool5
I0929 21:43:47.616083 20270 net.cpp:368] ip3 -> ip3
I0929 21:43:47.616096 20270 net.cpp:120] Setting up ip3
I0929 21:43:47.654011 20270 net.cpp:127] Top shape: 64 10575 (676800)
I0929 21:43:47.654090 20270 layer_factory.hpp:74] Creating layer ip3_ip3_0_split
I0929 21:43:47.654109 20270 net.cpp:90] Creating Layer ip3_ip3_0_split
I0929 21:43:47.654121 20270 net.cpp:410] ip3_ip3_0_split <- ip3
I0929 21:43:47.654137 20270 net.cpp:368] ip3_ip3_0_split -> ip3_ip3_0_split_0
I0929 21:43:47.654153 20270 net.cpp:368] ip3_ip3_0_split -> ip3_ip3_0_split_1
I0929 21:43:47.654166 20270 net.cpp:120] Setting up ip3_ip3_0_split
I0929 21:43:47.654180 20270 net.cpp:127] Top shape: 64 10575 (676800)
I0929 21:43:47.654189 20270 net.cpp:127] Top shape: 64 10575 (676800)
I0929 21:43:47.654199 20270 layer_factory.hpp:74] Creating layer accuracy
I0929 21:43:47.654260 20270 net.cpp:90] Creating Layer accuracy
I0929 21:43:47.654286 20270 net.cpp:410] accuracy <- ip3_ip3_0_split_0
I0929 21:43:47.654299 20270 net.cpp:410] accuracy <- label_data_1_split_0
I0929 21:43:47.654309 20270 net.cpp:368] accuracy -> accuracy
I0929 21:43:47.654321 20270 net.cpp:120] Setting up accuracy
…
